BD1/bd1_models/bd1_bindingdb_curated/NN_computed_descriptors_scaffold_regression/341686f7-8aad-4880-b48a-6b3d4fcc4668/best_model/checkpoint1.pt (torch, 521917 bytes, 24 tensors)

layers.0.weight f4 [57, 200]
0.0108887 -0.024823418 0.0062774178 -0.049920306 -0.019630898 0.025306936 -0.02914283 -0.018672248
0.012169074 1.9120589e-38 -0.0050249207 -0.005787978 0.023839878 0.0022198062 -0.0050314544 0.028930157
0.030006347 -0.005631715 -0.004665362 -8.778545e-05 0.016779302 -0.014402841 -0.0070087113 -0.004009744
-0.012506974 -0.015652617 0.008442364 0.013388338 -0.016723638 0.0138095375 0.026320662 -0.029294984
-0.0037930403 0.036240473 -0.007007371 -0.021081248 0.016816173 -0.03269291 0.057183597 -0.03293563
-0.01321062 0.01256841 0.03376911 0.011652579 -0.0060687577 -0.053979144 0.07879963 -0.01746166
0.0034140593 -0.040327862 -0.031728335 0.002794462 -0.004289586 0.0066009723 5.4769425e-05 -0.053868156
0.013734437 0.007803036 0.003163283 -0.0024631564 -0.04569747 0.017500928 0.023791235 -0.026845483
0.020812428 0.010745758 -0.035019014 0.032374524 0.0123055605 0.01748917 -0.027239362 -0.05896477
0.00051107304 0.0010175746 0.015163608 0.03175119 -0.010305609 -0.07544454 -0.051005088 0.0018003038
0.015789505 0.03864283 4.150547e-05 -0.013941923 0.004795474 -0.013703238 0.027599635 -0.02539985
0.03681755 0.0074027274 0.020663401 -0.028153464 0.0021749157 -0.007154294 -0.030349616 -0.055013336
-0.017210865 -0.041607503 0.019589605 -0.0335859 0.00865428 -0.012558855 0.008283934 0.02886229
0.02297842 -0.012888011 -0.023946203 -0.014592888 -0.00463207 -0.009380361 0.0026721738 -0.021964913
0.04744616 0.03176167 -0.01352832 -0.004582558 -0.044507895 0.007423869 0.05700421 -0.020165212
0.0008229682 0.029240048 0.011229457 -0.0050952295 0.004472052 0.0021164932 -0.034517504 -8.92117e-39
-0.0072142007 -0.004395449 0.017085016 -0.017320298 0.016553514 0.030913332 -0.030770047 0.025092348
0.012719189 3.318638e-12 6.626619e-28 0.06629226 0.035712942 -0.030787708 -0.0035727948 0.034894127
0.018393524 0.035338584 -3.3764785e-38 0.009782676 4.3198785e-08 0.010041153 -6.6912713e-07 0.021795359
-6.479235e-09 1.6274312e-23 2.3834608e-27 0.027268147 -0.002750515 -1.3061049e-32 -3.4209586e-38 -0.03780564
-1.3812855e-06 -0.012134287 -0.0014392864 -0.0075300387 -6.818133e-05 -0.00015838556 0.030068181 0.013002393
-6.2807716e-36 0.010909408 -0.0052160765 -0.0077994103 -0.0011567622 4.238903e-06 6.9455574e-08 3.156694e-35
3.4904264e-08 0.04293208 -5.349286e-38 -0.018420702 0.031179981 0.031810965 -4.7721023e-38 5.1689865e-19
0.0007998109 0.031140694 0.0011513425 -9.466271e-38 0.017025273 -7.382899e-38 -0.014614913 0.013975876
0.027360726 0.04476696 0.041585367 -0.013379842 4.219824e-05 -0.020136489 -3.9679263e-38 -0.01829173
0.006712893 0.00067285454 0.0129716 0.019572021 -0.016651595 -0.04306318 -0.030658778 0.011267013
-0.005230249 -6.790015e-38 -0.0016433105 0.014848164 -0.01975829 0.03240849 -0.019527255 -0.029769205
-0.019143142 -0.01404912 -0.040867712 0.0076160897 -0.009343684 -0.019798914 -0.010924735 -0.016655928
0.0021763751 0.020143852 -0.013766705 0.0047142855 -0.009191832 -0.009420721 -0.0014332004 0.011172164
0.0122605795 -0.0064994334 0.0038315072 0.013807964 -0.029329289 0.031106684 -0.090658076 -0.060954377
0.022089027 -0.05866591 0.064988606 -0.010383398 0.023648841 0.044278387 -0.06492237 -0.0055922256
-0.0071132975 -0.0028034954 0.00495394 0.04815312 0.014319125 0.04196475 0.012293928 -0.010935058
00000000: 8566 323c 7b5a cbbc ccb2 cd3b 3c79 4cbd
00000010: fad0 a0bc 7e50 cf3c f2bc eebc 8bf6 98bc
00000020: cc60 473c 6c34 d000 17a8 a4bb 14a9 bdbb
00000030: d94b c33c 2b7a 113b e6de a4bb f0fe ec3c
00000040: dfcf f53c 408a b8bb e5df 98bb 7419 b8b8
00000050: bf74 893c e5f9 6bbc 55a9 e5bb 2c64 83bb
00000060: 0dea 4cbc eb39 80bc d751 0a3c c25a 5b3c
00000070: 0300 89bc 6641 623c 6e9e d73c 09fc efbc
00000080: a894 78bb e470 143d 179e e5bb 95b2 acbc
00000090: 12c2 893c 00e9 05bd 5939 6a3d 83e7 06bd
000000a0: 5b71 58bc bbeb 4d3c 7a51 0a3d 75ea 3e3c
000000b0: 6edc c6bb 3c19 5dbd b361 a13d c10b 8fbc
000000c0: 69be 5f3b d42e 25bd 92f5 01bd 4b23 373b
000000d0: a88f 8cbb f84c d83b 39b8 6538 dba4 5cbd
000000e0: 6706 613c 9cb0 ff3b 154f 4f3b e86c 21bb
000000f0: 452d 3bbd 1b5e 8f3c d6e5 c23c 0feb dbbc
00000100: d37e aa3c fa0e 303c 1970 0fbd 269b 043d
00000110: 439d 493c 7345 8f3c 1525 dfbc 0b85 71bd
00000120: 88f9 053a 2360 853a c870 783c 890d 023d
00000130: dbd8 28bc ab82 9abd b6ea 50bd 2cf8 eb3a
00000140: fe58 813c f247 1e3d 2916 2e38 aa6c 64bc
00000150: 5a23 9d3b 8c83 60bc a118 e23c 5913 d0bc
00000160: 00ce 163d 9492 f23b 4b46 a93c 18a2 e6bc
00000170: 0889 0e3b 916e eabb c29f f8bc aa55 61bd
00000180: cdfd 8cbc a16c 2abd 617a a03c 5e91 09bd
00000190: aeca 0d3c a8c3 4dbc 56b9 073c 9c70 ec3c
000001a0: 3d3d bc3c 3c28 53bc d42a c4bc 0217 6fbc
000001b0: 9fc8 97bb 16b0 19bc a31f 2f3b c3ef b3bc
000001c0: e856 423d 8618 023d e3a5 5dbc 4829 96bb
000001d0: e94d 36bd ed43 f33b 3f7d 693d 8431 a5bc
000001e0: 76bc 573a d388 ef3c c2fb 373c e2f5 a6bb
000001f0: 4b8a 923b ddb4 0a3b 3a62 0dbd 9824 6180
00000200: 1a65 ecbb b307 90bb e0f5 8b3c 4ce3 8dbc
00000210: 3c9b 873c f53d fd3c 7711 fcbc 788e cd3c
00000220: 2564 503c 4487 692c 8501 5212 3dc4 873d
00000230: bc47 123d 8136 fcbc 8d25 6abb 25ed 0e3d
00000240: 04ae 963c 31bf 103d 3ed5 3781 8447 203c
00000250: 9189 3933 a683 243c 119e 33b5 2e8c b23c
00000260: f49f deb1 3f65 9d19 54d6 3c13 7361 df3c
00000270: fc41 34bb 39a2 878a 3441 3a81 16da 1abd
00000280: 9c64 b9b5 e3ce 46bc 70a6 bcba 8bbe f6bb
00000290: 93fc 8eb8 4d14 26b9 8c51 f63c fd07 553c
000002a0: c693 0585 60bd 323c 9feb aabb 3292 ffbb
000002b0: 809e 97ba e63b 8e36 9b27 9533 b1d6 2706
000002c0: a5e9 1533 8cd9 2f3d 159f 9181 03e7 96bc
000002d0: 296d ff3c 374c 023d b3e8 8181 c28f 1821
000002e0: 67aa 513a c51a ff3c a5e8 963a 24d9 0082
000002f0: 9678 8b3c 4cfb c881 6373 6fbc 13fb 643c
00000300: 9a23 e03c 8f5d 373d 6b55 2a3d 2037 5bbc
00000310: 04fe 3038 47f5 a4bc d208 5881 8ad8 95bc
00000320: d4f7 db3b 8162 303a d586 543c 8155 a03c
00000330: ed68 88bc 0463 30bd 1e28 fbbc 4799 383c
00000340: 8262 abbb 80d7 b881 5a64 d7ba b745 733c
00000350: 23dc a1bc c4be 043d 9ff7 9fbc 8cde f3bc
00000360: 14d2 9cbc 482e 66bc e764 27bd 6490 f93b
00000370: 4016 19bc 5531 a2bc a9fd 32bc 0372 88bc
00000380: 84a1 0e3b b804 a53c bf8d 61bc 4b7a 9a3b
00000390: 5699 16bc 5e59 1abc 3ada bbba 740b 373c
000003a0: 99e0 483c 33f9 d4bb 061a 7b3b cc3a 623c
000003b0: fa43 f0bc 72d3 fe3c f1aa b9bd 4cab 79bd
000003c0: 0cf4 b43c aa4b 70bd bf18 853d 211f 2abc
000003d0: 37bb c13c 415d 353d 05f6 84bd fd3e b7bb
000003e0: aa16 e9bb d9ba 37bb a954 a23b 353c 453d
000003f0: c39a 6a3c 3be3 2b3d 796c 493c f528 33bc

layers.0.bias f4 [57]
1.0035363 1.0001924 1.0027229 0.9922116 0.99734735 1.0084401 0.9989707 0.99957085
0.9898908 1.002387 0.9984383 1.0029093 1.0015626 1.008348 1.0009044 1.0024049
1.0081382 1.0003686 0.9929719 1.0003705 1.0001694 1.0086684 1.0000039 0.99478304
1.0030389 1.0045573 1.0014341 1.0003263 1.0016791 1.0010294 0.99558824 0.9989992
0.99997586 0.99798983 1.001147 1.0009123 1.0002335 0.99643695 1.0016505 0.998438
0.9995852 1.0003701 0.9859801 1.0014265 0.9992111 0.9995841 1.0019943 0.9987778
1.0218669 1.0032763 0.9969504 1.0118889 0.99631476 1.0007277 1.0009584 0.9973644
1.0025923
00000000: e173 803f 4e06 803f 3959 803f 9401 7e3f
00000010: 2852 7f3f 9114 813f 8bbc 7f3f e0e3 7f3f
00000020: 7c69 7d3f 384e 803f a799 7f3f 555f 803f
00000030: 3433 803f 8c11 813f a31d 803f ce4e 803f
00000040: ac0a 813f 140c 803f 6833 7e3f 240c 803f
00000050: 8d05 803f 0c1c 813f 2100 803f 1aaa 7e3f
00000060: 9463 803f 5595 803f fe2e 803f b10a 803f
00000070: 0537 803f bb21 803f dfde 7e3f 69be 7f3f
00000080: 6bfe 7f3f 437c 7f3f 9625 803f e51d 803f
00000090: a707 803f 7e16 7f3f 1536 803f a299 7f3f
000000a0: d1e4 7f3f 210c 803f 3169 7c3f be2e 803f
000000b0: 4ccc 7f3f bee4 7f3f 5941 803f e7af 7f3f
000000c0: 89cc 823f 5c6b 803f 2438 7f3f 9385 813f
000000d0: 7c0e 7f3f d817 803f 681f 803f 4653 7f3f
000000e0: f254 803f

layers.1.weight f4 [337, 57]
-0.016879523 0.02221759 -0.0078717 -0.023943404 0.0012284558 -0.042024776 -0.0034323267 0.008627712
-0.008452515 -0.0069274693 -0.00034733478 -0.016870487 -0.017529625 -0.018482449 -0.03254431 -0.017406257
-0.0030041174 0.021243107 0.043551985 -0.030349147 -0.017104436 0.032135572 -0.010449049 -0.0114132855
-0.0034639754 -0.06343076 -0.049442735 -0.05915791 -0.016287614 -0.0015911257 0.016025117 0.046311226
0.00073055946 -0.004628152 0.0021108214 -0.008323111 -0.011900984 0.0024217893 -0.0019789813 -0.024943724
-0.0024836096 -0.011328872 0.02228 -0.020391481 0.050702535 0.042786963 -0.008234276 0.029558485
0.024563938 -0.009367793 0.010186174 0.044681158 0.014795459 -0.030751362 0.0053609507 -0.013261285
-0.018636117 -0.010420912 -0.0022246058 0.023175225 -0.015843865 -0.013015157 0.0343373 0.030492174
-0.0151323965 0.0146511 -0.0095684 -0.0061177798 -0.019836668 -0.008987277 0.039525423 0.02118498
0.022298979 0.020532427 -0.008548528 -0.008953777 -0.0054087494 0.008998493 -0.0020756095 0.021479731
-0.018936697 0.037071023 0.057250448 0.0575776 0.06707727 0.0071807196 -0.014563061 -0.054805048
-0.040771972 -0.0010079338 0.034802984 0.0023247194 0.0048412634 0.027648037 0.0050353445 -0.01726103
-0.01192316 -0.019881817 -0.0132312635 -0.005802094 0.008019985 -0.03694078 0.00728775 0.00221456
0.031936597 -0.0061022444 0.024403844 -0.026471369 -0.004119609 -0.03699806 0.020191483 0.018383807
-0.007082296 0.040203843 -0.014888907 0.0144791175 -0.0073343585 0.0065765637 -0.0071529 -0.013585469
-0.021155817 0.007860002 -0.005022511 0.0096675325 0.037889883 0.045550656 0.02419646 -0.009951903
-0.00032879392 -0.03370886 -0.07060518 -0.0048191356 0.050565552 -0.006058603 -0.02685488 0.021567347
-0.007159047 -0.029740958 -0.001427541 -0.0056851483 -0.012265854 -0.017496498 0.0037916212 0.01125044
0.0030857373 0.008844041 -0.017754741 -0.01731877 -0.010584686 0.0008296127 -0.021581149 0.03643594
0.013338408 0.034843285 -0.02361922 -0.0061563156 -0.0036842765 -0.015156525 0.03356752 0.004161734
-0.012345346 0.004316 -0.047170278 0.029029869 0.0032260653 0.0049068765 -0.039641622 -0.00015973121
-0.015976002 0.023696106 -0.04537737 0.0026941327 0.02726051 0.018686892 0.00014065926 0.027276853
-0.047593355 0.025888251 -0.033974778 0.036252126 0.00045657592 -0.03332695 -0.0013845186 -0.01598324
-0.05276037 0.0034156754 -0.038523853 -0.01676162 0.022049157 0.015815802 0.006497627 -0.050389558
-0.016865864 0.009423072 -0.021383507 -0.024936216 -0.048265476 -0.028786138 -0.03199936 -0.002705698
-0.009512158 -0.00087209034 -0.003745424 0.0054110684 0.012493103 -0.00054482004 0.0028904402 -0.028302636
0.01793768 -0.007245066 0.01682235 0.036344912 0.013093502 0.042989183 -0.019479634 0.011261707
0.0048128944 -0.05569367 0.023230562 -0.03174501 0.018396571 0.014246054 0.009610757 -0.012572073
0.01749164 -0.0025557783 -0.014356895 -0.01812928 -0.028483158 0.03117127 0.03112923 0.010415381
0.020699797 -0.023866214 0.02584856 -0.016449036 0.0046038586 0.014927404 -0.016066644 -0.029106075
-0.0025419763 -0.049103018 0.028519055 0.00209076 -0.030350864 -0.005024028 -0.0118419845 -0.0010203044
0.0052911253 -0.03822451 -0.036726978 -0.04985625 -0.022917941 0.013497455 -0.031602636 -0.014778981
00000000: ed46 8abc aa01 b63c 4ef8 00bc f524 c4bc
00000010: 2304 a13a 2c22 2cbd e3f0 60bb 3f5b 0d3c
00000020: 6b7c 0abc d3ff e2bb 7c1a b6b9 fa33 8abc
00000030: 4a9a 8fbc 8168 97bc 2f4d 05bd 9197 8ebc
00000040: bae0 44bb 0606 ae3c 9163 323d c69e f8bc
00000050: 9a1e 8cbc 97a0 033d 7d32 2bbc cafe 3abc
00000060: dd03 63bb fce7 81bd 7784 4abd 914f 72bd
00000070: 9a6d 85bc 528d d0ba 1b47 833c d7b0 3d3d
00000080: 0483 3f3a c1a7 97bb b555 0a3b a85d 08bc
00000090: 58fc 42bc e2b6 1e3b ccb1 01bb c856 ccbc
000000a0: 0ec4 22bb bc9c 39bc 8c84 b63c 090c a7bc
000000b0: 76ad 4f3d 6241 2f3d 0fe9 06bc a324 f23c
000000c0: 503a c93c 5f7b 19bc e9e3 263c 9703 373d
000000d0: a768 723c 48ea fbbc eaaa af3b dc45 59bc
000000e0: c5aa 98bc 79bc 2abc b1ca 11bb f8d9 bd3c
000000f0: feca 81bc 863d 55bc 45a5 0c3d b9ca f93c
00000100: dfed 77bc 2b0b 703c c7c4 1cbc a877 c8bb
00000110: 8280 a2bc 5f3f 13bc 69e5 213d 208c ad3c
00000120: 59ac b63c 9f33 a83c 200f 0cbc ddb2 12bc
00000130: e13b b1bb 6a6e 133c f306 08bb 43f6 af3c
00000140: 2221 9bbc c9d7 173d 727f 6a3d 7dd6 6b3d
00000150: cf5f 893d 3e4c eb3b e899 6ebc 427b 60bd
00000160: 8300 27bd a51c 84ba 938d 0e3d 525a 183b
00000170: 76a3 9e3b 237e e23c 88ff a43b 0167 8dbc
00000180: 5c59 43bc 31df a2bc f1c7 58bc 7e1f bebb
00000190: 4166 033c 374f 17bd 14ce ee3b 2722 113b
000001a0: f3cf 023d 56f5 c7bb 92ea c73c 7cda d8bc
000001b0: c9fd 86bb 478b 17bd 9c68 a53c a399 963c
000001c0: 9b12 e8bb c9ac 243d 9af0 73bc d239 6d3c
000001d0: 0f55 f0bb 3780 d73b e062 eabb 9695 5ebc
000001e0: f74e adbc 3dc7 003c e093 a4bb 9264 1e3c
000001f0: 6c32 1b3d 5393 3a3d a837 c63c 4e0d 23bc
00000200: f961 acb9 4d12 0abd 7399 90bd d7e9 9dbb
00000210: d31d 4f3d 3f87 c6bb c4fe dbbc 01ae b03c
00000220: 7096 eabb 4fa3 f3bc 541c bbba 7b4a babb
00000230: b8f6 48bc d154 8fbc d97c 783b c453 383c
00000240: 153a 4a3b 99e6 103c 6472 91bc 18e0 8dbc
00000250: 646b 2dbc 5e7a 593a f3ca b0bc da3d 153d
00000260: 5789 5a3c d5b7 0e3d 187d c1bc ebba c9bb
00000270: e773 71bb 1353 78bc 197e 093d 285f 883b
00000280: 2244 4abc 3b6d 8d3b 9f35 41bd 0cd0 ed3c
00000290: 656c 533b ddc9 a03b 415f 22bd 857d 27b9
000002a0: 1be0 82bc 561e c23c 9fdd 39bd 0c90 303b
000002b0: 6f51 df3c 4115 993c ef7d 1339 b573 df3c
000002c0: 40f1 42bd 9913 d43c 2329 0bbd 1c7d 143d
000002d0: 9560 ef39 d781 08bd bc78 b5ba 49ef 82bc
000002e0: 421b 58bd 86d9 5f3b 30cb 1dbd aa4f 89bc
000002f0: 6fa0 b43c 2490 813c 0cea d43b 4865 4ebd
00000300: 482a 8abc 3b63 1a3c 772c afbc 0947 ccbc
00000310: 05b2 45bd e8d0 ebbc c311 03bd 1452 31bb
00000320: e2d8 1bbc fe9c 64ba ca75 75bb 554f b13b
00000330: dfaf 4c3c 41d2 0eba 8a6d 3d3b eeda e7bc
00000340: 0bf2 923c 0568 edbb 06cf 893c 67de 143d
00000350: 2186 563c 6d15 303d c193 9fbc 0683 383c
00000360: 7cb5 9d3b 0c1f 64bd 054e be3c 0e07 02bd
00000370: 68b4 963c 4868 693c 7076 1d3c 19fb 4dbc
00000380: a14a 8f3c d87e 27bb 2f39 6bbc db83 94bc
00000390: 8355 e9bc e45a ff3c ba02 ff3c 46a5 2a3c
000003a0: 9f92 a93c 1483 c3bc 5cc0 d33c 21c0 86bc
000003b0: f7db 963b 1292 743c 329e 83bc dd6f eebc
000003c0: 4997 26bb 3f20 49bd cba0 e93c 2205 093b
000003d0: 60a2 f8bc 9aa0 a4bb e204 42bc bcbb 85ba
000003e0: 2d61 ad3b 4e91 1cbd 076f 16bd 1136 4cbd
000003f0: 68be bbbc 6e24 5d3c c471 01bd 8a23 72bc

layers.1.bias f4 [337]
0.9953904 1.0025511 1.0003327 0.99634033 0.99926466 0.9987378 0.9979681 0.9994763
0.99921644 0.9982728 1.0041968 0.99840814 0.9990176 0.9967299 0.9981971 0.99736816
0.99775416 0.99961215 0.99940634 0.99556255 0.99918205 1.0005345 1.0017992 0.9986784
0.9945753 0.99862134 0.9967428 0.9986952 0.9983841 1.0004927 0.9982068 0.9984525
0.99889755 0.9996925 0.9999013 1.0003076 1.0011456 0.9989155 1.0014602 0.99620867
0.99943405 0.9998988 0.99956656 1.0039053 0.9979342 0.9977601 0.9975514 0.99985987
0.9999025 0.997249 1.0001532 0.99552685 0.9998763 0.99970573 0.9976053 0.99866503
0.9989006 0.9999229 0.99522305 1.0005001 0.9987551 0.99785537 1.0021007 1.0003365
0.9989224 1.0032706 0.99986994 0.9985991 0.99744755 0.9983162 1.0000501 0.99813235
0.9982207 0.99902725 0.9998715 0.9984429 1.0004877 1.0017061 0.9969936 1.0009955
1.0001663 0.99835336 1.0004841 0.9971345 0.9997749 1.002103 0.99754274 1.001477
0.99729717 1.0011079 0.9990785 0.99341875 0.9975731 0.9975149 1.0007669 0.99780077
0.9998022 0.99793774 0.9978239 0.99979097 0.9969504 0.99911535 0.9994357 0.99928004
0.996668 1.0011561 1.000179 0.9973703 1.0010031 1.0007441 0.9993226 1.0005738
0.99765253 0.99853295 0.9989821 0.99893546 0.9997778 0.9997313 0.99603325 1.0001143
0.99630755 0.99904066 0.99695295 0.999815 0.998954 0.9989302 0.9994509 1.0017898
0.9980759 0.9985251 1.0002587 0.99810815 0.99875456 1.0028751 0.9984347 0.9996322
1.0006362 0.9991598 0.99981374 0.9991124 0.99640006 1.0012171 1.0010298 0.99757886
0.9999524 0.9949703 0.9992748 0.9960238 0.9996394 0.9976949 0.99751264 0.99904853
0.9964607 0.9980099 0.99880666 0.998663 0.99986845 1.0022662 1.0012174 0.99993587
0.99551594 0.99817175 0.9988813 0.9950568 1.001652 0.999932 1.0005019 0.9950905
0.996675 0.99882984 0.9984909 0.99732 1.0005283 0.9988385 1.0011973 0.99953306
0.99645394 1.0024304 0.99832606 0.9982775 0.9996578 0.9990377 0.9999624 0.9979434
1.0010175 1.0001806 0.9953204 0.99955934 0.9998258 0.9961069 0.99943584 0.99458116
0.9992311 1.0009987 0.99911004 0.99659455 0.998646 0.9986585 1.001125 0.9982117
1.000863 1.0000795 0.99923635 1.0000858 0.9956779 0.99914944 0.9971406 0.9952414
0.9984286 0.9991839 0.99974763 1.0006509 1.0029699 1.0003067 1.000134 0.9968961
0.99865294 0.9969203 1.001509 0.99861753 1.00396 0.99968505 0.99954134 0.9983917
1.0020025 0.99769855 0.99595594 0.99956965 0.99990207 0.9983006 1.0021352 0.99787134
1.001445 1.0006002 1.0032784 1.0013286 0.995088 1.0024294 0.99805456 0.9991722
1.0011947 1.000721 0.998201 0.99949026 0.99754816 1.001397 0.9967705 0.9988821
0.9995168 0.9997725 0.9964215 0.9976428 0.9996634 0.9998983 0.9977109 0.9995873
00000000: e8d1 7e3f 9853 803f e70a 803f 2910 7f3f
00000010: cfcf 7f3f 48ad 7f3f d67a 7f3f aedd 7f3f
00000020: a6cc 7f3f ce8e 7f3f 8589 803f ad97 7f3f
00000030: 9ebf 7f3f b129 7f3f d889 7f3f 8553 7f3f
00000040: d16c 7f3f 95e6 7f3f 18d9 7f3f 30dd 7e3f
00000050: 65ca 7f3f 8411 803f f53a 803f 63a9 7f3f
00000060: 7d9c 7e3f a6a5 7f3f 892a 7f3f 7daa 7f3f
00000070: 1a96 7f3f 2510 803f 7b8a 7f3f 959a 7f3f
00000080: c0b7 7f3f d9eb 7f3f 88f9 7f3f 140a 803f
00000090: 8a25 803f edb8 7f3f d92f 803f 8807 7f3f
000000a0: e9da 7f3f 5ef9 7f3f 98e3 7f3f f87f 803f
000000b0: 9e78 7f3f 356d 7f3f 875f 7f3f d1f6 7f3f
000000c0: 9cf9 7f3f b64b 7f3f 0505 803f d9da 7e3f
000000d0: e5f7 7f3f b7ec 7f3f 1063 7f3f 83a8 7f3f
000000e0: f3b7 7f3f f2fa 7f3f f0c6 7e3f 6310 803f
000000f0: 6aae 7f3f 7373 7f3f d644 803f 070b 803f
00000100: 61b9 7f3f 2c6b 803f 7af7 7f3f 31a4 7f3f
00000110: b958 7f3f a791 7f3f a401 803f 9a85 7f3f
00000120: 648b 7f3f 40c0 7f3f 94f7 7f3f f499 7f3f
00000130: fb0f 803f e837 803f f93a 7f3f 9f20 803f
00000140: 7305 803f 1694 7f3f dd0f 803f 3544 7f3f
00000150: 3ff1 7f3f e944 803f f65e 7f3f 6630 803f
00000160: de4e 7f3f 4e24 803f 9cc3 7f3f b150 7e3f
00000170: f360 7f3f 235d 7f3f 2119 803f df6f 7f3f
00000180: 09f3 7f3f d978 7f3f 6371 7f3f 4df2 7f3f
00000190: 2438 7f3f 06c6 7f3f 05db 7f3f d1d0 7f3f
000001a0: a225 7f3f e225 803f de05 803f a953 7f3f
000001b0: df20 803f 6218 803f 9bd3 7f3f cd12 803f
000001c0: 2866 7f3f db9f 7f3f 4abd 7f3f 3cba 7f3f
000001d0: 70f1 7f3f 64ee 7f3f 09fc 7e3f bf03 803f
000001e0: 030e 7f3f 21c1 7f3f 4f38 7f3f e0f3 7f3f
000001f0: 73bb 7f3f e4b9 7f3f 04dc 7f3f a63a 803f
00000200: e781 7f3f 579f 7f3f 7a08 803f 0484 7f3f
00000210: 61ae 7f3f 365e 803f 6b99 7f3f e5e7 7f3f
00000220: d914 803f f0c8 7f3f cbf3 7f3f d5c5 7f3f
00000230: 1314 7f3f e227 803f bf21 803f 5461 7f3f
00000240: e1fc 7f3f 60b6 7e3f 79d0 7f3f 6afb 7e3f
00000250: 5ee8 7f3f ef68 7f3f fd5c 7f3f a5c1 7f3f
00000260: 0c18 7f3f 947d 7f3f cbb1 7f3f 61a8 7f3f
00000270: 61f7 7f3f 424a 803f e427 803f ccfb 7f3f
00000280: 22da 7e3f 2f88 7f3f afb6 7f3f 0bbc 7e3f
00000290: 2236 803f 8bfb 7f3f 7210 803f 40be 7e3f
000002a0: 1826 7f3f 50b3 7f3f 1a9d 7f3f 5d50 7f3f
000002b0: 5011 803f e1b3 7f3f 3c27 803f 66e1 7f3f
000002c0: 9b17 7f3f a44f 803f 4c92 7f3f 1d8f 7f3f
000002d0: 93e9 7f3f efc0 7f3f 89fd 7f3f 3879 7f3f
000002e0: 5721 803f eb05 803f 51cd 7e3f 1fe3 7f3f
000002f0: 95f4 7f3f dd00 7f3f 07db 7f3f df9c 7e3f
00000300: 9ccd 7f3f ba20 803f adc5 7f3f d220 7f3f
00000310: 44a7 7f3f 15a8 7f3f dd24 803f cd8a 7f3f
00000320: 471c 803f 9b02 803f f4cd 7f3f d002 803f
00000330: bfe4 7e3f 42c8 7f3f 9b44 7f3f 24c8 7e3f
00000340: 0499 7f3f 84ca 7f3f 76ef 7f3f 5415 803f
00000350: 5161 803f 0d0a 803f 6404 803f 9534 7f3f
00000360: b8a7 7f3f 2b36 7f3f 7231 803f 66a5 7f3f
00000370: c381 803f 5ceb 7f3f f1e1 7f3f 9996 7f3f
00000380: 9e41 803f 2c69 7f3f f8f6 7e3f cce3 7f3f
00000390: 95f9 7f3f a190 7f3f f745 803f 7f74 7f3f
000003a0: 5a2f 803f ab13 803f 6d6b 803f 892b 803f
000003b0: 16be 7e3f 9b4f 803f 8180 7f3f c0c9 7f3f
000003c0: 2627 803f a017 803f 1a8a 7f3f 98de 7f3f
000003d0: 515f 7f3f c72d 803f 5a2c 7f3f bdb6 7f3f
000003e0: 55e0 7f3f 17f1 7f3f 7b15 7f3f 8565 7f3f
000003f0: f1e9 7f3f 56f9 7f3f fb69 7f3f f4e4 7f3f

layers.2.weight f4 [34, 337]
0.0053842883 0.002666069 -0.010001846 0.019807518 -0.0018154966 -0.0017464319 -0.023336325 -0.039064582
-0.024191432 0.0077964654 0.0071890145 -0.0036628267 0.011800744 0.04186818 0.021174734 0.032061625
-0.007905218 0.025433237 -0.019334715 -0.012937267 0.020354155 -0.021738896 0.0037734625 -0.0063263937
-0.005119148 -0.026172845 -0.011408198 -0.02342484 0.02424549 0.015294863 -0.021121068 -0.01155361
-0.018517282 0.004857516 -0.002652952 0.00050574675 0.0322405 -0.0284672 -0.0153318355 0.005929092
0.0018057127 0.022943866 0.01294644 -0.013608195 0.033708144 -0.008190228 0.028591415 0.027179776
0.045856528 -0.023741335 0.0030079167 -0.024876937 -0.016361367 0.046491284 0.0205415 0.0062950123
0.005232863 -0.01278306 0.012663469 -0.0048452048 -0.0029551508 -0.00583255 -0.006600666 0.021143712
0.015538134 0.0010956415 0.008568539 -0.008686603 -0.011218175 0.013191289 0.014692404 -0.007854005
0.012396966 0.03992278 -0.011990645 -0.017800665 0.02143651 -0.007791739 0.0033220216 -0.034496676
-0.027092094 0.02409707 -0.021922817 -0.013962444 -0.0011178165 -0.005597412 0.0030863069 9.810718e-06
-0.026092097 0.023502847 -0.03438959 0.011150067 -0.0238846 0.02582771 -0.011022103 -0.017500212
-0.010080977 -0.068567775 -0.026542474 -0.014721894 -0.011037987 -0.0365322 0.030322442 0.0022581134
0.00021443391 -0.0024549062 0.006730833 -0.010330838 0.023653615 0.026959281 -0.0031009333 -0.027493024
0.014942771 0.012141226 -0.029254321 -0.024154162 -0.014148405 0.030916078 0.008546088 -0.012140216
-0.04040646 -0.034068387 -0.005333345 -0.0026123358 0.0014872996 -0.029100105 0.025751956 5.4543092e-05
-0.0038580748 -0.01593415 0.034963258 -0.02287559 -0.0061898637 0.03369768 -0.010075811 0.022974322
0.010194394 -0.011601134 0.010600988 -0.02562992 -0.025170967 -0.005333517 0.00033094833 -0.026566682
0.040862642 -0.026851038 0.031099178 -0.005682881 0.010604581 -0.0071189627 0.012385025 0.0022937271
-0.04377389 0.00907498 0.0039151385 0.024936743 0.00061770866 -0.01608343 -0.024530146 0.004448921
0.0036518064 0.000110200395 0.0065143397 -0.014568595 0.007677309 -0.01663023 -0.0154480515 -0.013473
-0.0005392993 0.011092795 -0.017897984 0.008581129 0.03342731 0.025966447 -0.010162633 -0.012954571
-0.028320275 -0.038287256 0.018399898 -0.007609304 0.0007293896 0.028700514 0.029004335 0.043721028
-0.045293227 -0.0137699535 -0.020932993 0.001595133 0.0043043764 -0.019552086 -0.01643938 -0.012278909
0.023569528 0.004325324 0.012622603 0.011940876 0.007726022 0.0101446975 0.008771744 0.027620347
0.023833364 -0.05601224 0.03327639 -0.027966624 0.02348284 -0.004868044 0.03321562 -0.017056193
0.021784436 0.008102744 0.017866332 0.011085129 0.0061093466 0.0010009042 -0.006199589 0.01547602
-0.00022256757 -0.04335449 0.00021898307 -0.0072381757 0.034544297 -0.0024232813 0.010983547 -0.009297359
-0.004684135 0.006172035 -0.030789781 0.029005019 -0.014718688 0.010240703 0.018134309 0.011053514
-0.025092008 -0.038616993 -0.008241833 0.01340393 -0.003158832 0.004020836 0.009560563 -0.020811278
0.0095169805 -0.0058228527 -0.010739282 -0.005072269 -0.038954288 -0.004986014 -0.006019552 -0.01805039
-0.003255985 -0.027210262 -0.010663774 -0.018459316 0.0048094816 0.045160215 0.013212937 0.011865786
00000000: af6e b03b 37b9 2e3b c8de 23bc 6043 a23c
00000010: f5f5 edba 88e8 e4ba d22b bfbc 2f02 20bd
00000020: 1c2d c6bc 7e79 ff3b d391 eb3b 090c 70bb
00000030: e857 413c f87d 2b3d a376 ad3c 0d53 033d
00000040: e384 01bc 5d59 d03c d663 9ebc d5f6 53bc
00000050: c2bd a63c c515 b2bc 324c 773b a34d cfbb
00000060: 87be a7bb 6f68 d6bc 73e9 3abc 73e5 bfbc
00000070: 7a9e c63c 4e97 7a3c 1706 adbc 5a4b 3dbc
00000080: 8eb1 97bc cc2b 9f3b 26dd 2dbb 1794 043a
00000090: 9d0e 043d 0c34 e9bc 6132 7bbc d448 c23b
000000a0: aaad ec3a c6f4 bb3c 4e1d 543c e8f4 5ebc
000000b0: 8d11 0a3d 4e30 06bc 8b38 ea3c 1fa8 de3c
000000c0: 0ed4 3b3d 307d c2bc 7820 453b b8ca cbbc
000000d0: 4608 86bc a56d 3e3d a646 a83c 6446 ce3b
000000e0: 7078 ab3b 0a70 51bc 707a 4f3c 86c4 9ebb
000000f0: 34ab 41bb fa1e bfbb 664a d8bb 9435 ad3c
00000100: a893 7e3c a19b 8f3a 0f63 0c3c 4152 0ebc
00000110: 70cc 37bc 4720 583c 69b8 703c 16ae 00bc
00000120: a51c 4b3c 1286 233d 6974 44bc b3d2 91bc
00000130: 9f9b af3c d851 ffbb 46b6 593b 634c 0dbd
00000140: 3df0 ddbc 3867 c53c 7b97 b3bc bcc2 64bc
00000150: b383 92ba 7f6a b7bb a343 4a3b b798 2437
00000160: 18bf d5bc 0b89 c03c 19dc 0cbd c5ae 363c
00000170: a3a9 c3bc a294 d33c 0d96 34bc 9b5c 8fbc
00000180: af2a 25bc 436d 8cbd 9a6f d9bc 1934 71bc
00000190: acd8 34bc caa2 15bd c566 f83c dbfc 133b
000001a0: aad9 6039 7ee2 20bb 528e dc3b ad42 29bc
000001b0: 3ac5 c13c b6d9 dc3c 0739 4bbb 0d39 e1bc
000001c0: 86d2 743c feeb 463c c2a6 efbc f3de c5bc
000001d0: b6ce 67bc b743 fd3c e404 0c3c c2e7 46bc
000001e0: 3f81 25bd 4b8b 0bbd 57c3 aebb b933 2bbb
000001f0: 7ef1 c23a 5863 eebc c4f5 d23c 33c5 6438
00000200: c1d7 7cbb 5688 82bc a235 0f3d 9765 bbbc
00000210: 57d4 cabb 9406 0a3d 0415 25bc a534 bc3c
00000220: 6306 273c af12 3ebc c4af 2d3c d7f5 d1bc
00000230: 5833 cebc c9c4 aebb 2283 ad39 5fa2 d9bc
00000240: 965f 273d b5f6 dbbc b4c3 fe3c 7637 babb
00000250: d6be 2d3c 3046 e9bb 8fea 4a3c 5b52 163b
00000260: 404c 33bd 3aaf 143c 904a 803b 2448 cc3c
00000270: baed 213a 66c1 83bc 72f3 c8bc 41c8 913b
00000280: 2553 6f3b 631b e738 3e76 d53b 1eb1 6ebc
00000290: f091 fb3b 1f3c 88bc d319 7dbc dcbd 5cbc
000002a0: c35f 0dba 8ebe 353c cb9e 92bc dd97 0c3c
000002b0: 13eb 083d 96b7 d43c 2c81 26bc 693f 54bc
000002c0: ecff e7bc 19d3 1cbd 62bb 963c 7857 f9bb
000002d0: 8234 3f3a 571d eb3c 809a ed3c d214 333d
000002e0: 6485 39bd 5f9b 61bc ab7b abbc c813 d13a
000002f0: ba0b 8d3b b22b a0bc e1ab 86bc 7a2d 49bc
00000300: e214 c13c 73bb 8d3b 09cf 4e3c aaa3 433c
00000310: 922a fd3b f235 263c 5cb7 0f3c 1144 e23c
00000320: 303e c33c 176d 65bd d34c 083d 431a e5bc
00000330: 165f c03c 1d84 9fbb 1a0d 083d 6eb9 8bbc
00000340: 4675 b23c 5fc1 043c 6a5c 923c 679e 353c
00000350: ea30 c83b c630 833a ec25 cbbb 228f 7d3c
00000360: 0761 69b9 7a94 31bd d29e 6539 382e edbb
00000370: 527e 0d3d eacf 1ebb 56f4 333c f353 18bc
00000380: 5f7d 99bb c83e ca3b da3a fcbc ef9b ed3c
00000390: a726 71bc 9fc8 273c 678e 943c cc19 353c
000003a0: c18d cdbc da2c 1ebd c108 07bc 289c 5b3c
000003b0: 6804 4fbb 38c1 833b e8a3 1c3c 6a7c aabc
000003c0: 1ced 1b3c a1cd bebb d0f3 2fbc 4735 a6bb
000003d0: 888e 1fbd b861 a3bb a93f c5bb 69de 93bc
000003e0: 5d62 55bb 0ee8 debc 1cb7 2ebc fe37 97bc
000003f0: db98 9d3b ebf9 383d 137b 583c b768 423c

layers.2.bias f4 [34]
1.0010893 0.9964168 0.99648845 0.99915314 0.99944234 0.99774677 0.9967149 0.99951077
0.9988166 0.99941397 1.0003581 0.9981786 0.99849784 0.9979947 0.99762356 0.9987957
0.9996562 1.0013263 0.99975395 0.9982271 1.0006305 0.99810207 0.99726605 0.9989691
0.99919164 0.9972831 0.9987341 0.99828446 0.9980235 0.99795973 0.9986322 0.9984148
0.99961966 1.0022078
00000000: b223 803f 2c15 7f3f de19 7f3f 80c8 7f3f
00000010: 74db 7f3f 556c 7f3f b528 7f3f f0df 7f3f
00000020: 72b2 7f3f 98d9 7f3f bc0b 803f a288 7f3f
00000030: 8e9d 7f3f 957c 7f3f 4264 7f3f 13b1 7f3f
00000040: 78e9 7f3f 762b 803f e0ef 7f3f d08b 7f3f
00000050: a914 803f 9e83 7f3f d44c 7f3f 70bc 7f3f
00000060: 06cb 7f3f f24d 7f3f 0aad 7f3f 928f 7f3f
00000070: 787e 7f3f 4a7a 7f3f 5ca6 7f3f 1d98 7f3f
00000080: 13e7 7f3f 5848 803f

output_layer.weight f4 [1, 34]
0.026275676 -0.033348892 0.023494706 -0.064079106 -0.00517194 0.03544763 0.0079788 0.015927983
-0.006760138 -0.012638358 0.020758897 -0.031769373 -0.014300018 -0.038314946 0.0069466545 0.06476981
-0.060893398 0.009792779 0.012648097 0.0138730705 0.020960137 -0.050261676 -0.023524947 -0.0028532397
-0.009081971 -0.012432093 -0.052024387 0.087414734 0.051243808 -0.04887049 -0.050729446 0.05734305
-0.013044994 -0.040178277
00000000: 1640 d73c d998 08bd f877 c03c e83b 83bd
00000010: 6179 a9bb 8931 113d 83b9 023c 677b 823c
00000020: 2684 ddbb 1e11 4fbc 900e aa3c 9a20 02bd
00000030: 9f4a 6abc 22f0 1cbd c3a0 e33b 09a6 843d
00000040: 5b6b 79bd e471 203c f739 4f3c e04b 633c
00000050: 98b4 ab3c 30df 4dbd 64b7 c0bc 6bfd 3abb
00000060: 8ccc 14bc faaf 4bbc 8617 55bd 7f06 b33d
00000070: 07e5 513d 6c2c 48bd aec9 4fbd 8ce0 6a3d
00000080: acba 55bc fa91 24bd

uncertainty_layer.weight f4 [1, 34]
-0.13104978 0.093134195 0.106997795 0.16244411 -0.11473379 0.16459931 0.027890602 0.053097717
-0.16093971 -0.059488248 -0.1629006 0.00093907554 -0.084362306 0.020031506 0.105171524 -0.0817348
0.1810091 -0.080722466 -0.1406874 -0.1288554 -0.08708378 0.07375734 0.057691257 0.016729193
-0.07628058 -0.04777171 0.0992683 0.13386881 0.031290706 0.027202863 0.009829592 0.043811485
-0.16893402 -0.085281245
00000000: ea31 06be 24bd be3d a921 db3d c057 263e
00000010: 8df9 eabd b98c 283e d57a e43c fe7c 593d
00000020: 61cd 24be f3a9 73bd 6acf 26be 4b2c 763a
00000030: 25c6 acbd 1d19 a43c 2b64 d73d 9364 a7bd
00000040: 735a 393e d251 a5bd 5c10 10be acf2 03be
00000050: fb58 b2bd 170e 973d ab4d 6c3d a90b 893c
00000060: fe38 9cbd 45ac 43bd 2e4d cb3d e814 093e
00000070: af2a 003d 8ad8 de3c 4c0c 213c ac73 333d
00000080: 0afd 2cbe efa7 aebd

exp_avg f4 [57, 200]
-0.007260295 0.005138974 -0.007261219 -0.00811704 -0.0021712037 0.00023901543 0.0004098072 0.00022493192
-0.000142153 3.831e-42 -0.00044975328 -0.009591766 0.008535011 0.00065675506 0.0057639433 0.005159008
0.0057809222 -0.0069495966 0.00040785043 -0.0015288403 -0.0013919998 0.0006407849 -0.00047082218 -0.00093610695
0.000974303 0.0030747326 0.0012119024 0.0055890335 0.0036909932 0.008059816 0.0063159545 -0.0019638147
-4.4953904e-05 0.0015407853 -0.002561988 -0.0050752186 9.0547255e-06 -0.0007266299 0.004855406 0.0010894815
0.0009984863 -0.007821694 0.0027200822 0.0049254242 -0.002525504 0.001030347 -0.0052351747 0.0052387323
-0.003761546 -0.0048506316 0.005025467 -0.0011112919 -0.003642046 0.0037166108 0.0017422293 -0.0037811913
-0.000736463 -0.0015421441 0.0026835727 -5.0348905e-07 0.006274165 -0.0025620337 -0.008352093 0.0069914837
0.00271401 0.0007849326 -0.008530866 0.004449786 0.0016444279 -0.00024028256 -0.0015526618 0.004137817
1.05710434e-07 0.0043700687 -0.0011971636 -0.0072855526 -0.0057325168 -0.00047836232 0.0043468904 -0.0034348243
-0.0013386408 -0.0008737827 8.760949e-09 0.008946363 0.0029696785 -0.0029934265 0.002476839 -0.00093421957
0.0039598015 -0.0037535767 -0.00025856492 0.0025368044 0.0066575026 0.00013341218 0.005022925 8.2510334e-05
0.00059916894 0.0016361558 0.0022135617 -0.0019895132 0.0073098373 0.005653076 0.0013234313 0.004091827
0.005650196 0.0043306146 0.0030350334 -0.000826184 -0.000709116 -0.0022790811 -0.0010167357 -0.0023621125
0.009572006 -0.00047098266 3.1747072e-06 -0.0005300268 0.025619926 -4.2710035e-05 -0.0018667128 -0.0006411792
0.0037424546 0.004983357 0.00025427854 -0.0008261642 -0.0009342154 -0.0059073856 -0.0058972505 -1.485e-42
0.029276164 0.0006558436 -9.619524e-05 -0.002414124 -0.00651783 -0.0003014705 -0.000288577 -0.008167777
0.004980053 8.2406824e-16 2.4294546e-31 0.00032880515 -0.0035980537 -0.001751349 -0.006503461 -0.0035281493
-0.004925302 0.008609791 -6.747e-42 -6.0556245e-05 9.698583e-12 0.001323782 -1.4642287e-10 -0.011657052
-1.481947e-12 8.809516e-27 1.808942e-31 -0.0004011797 0.0040377467 3.2388734e-37 -6.844e-42 -0.005946666
-3.002876e-10 -9.087907e-05 0.011187633 -6.40192e-05 -1.4332519e-08 -3.3066293e-08 0.001016107 0.0010126941
-2.1434812e-38 0.0023217988 -0.0026163305 -0.0010125558 -0.003017734 9.1239966e-10 1.552282e-11 3.67492e-40
7.852486e-12 -0.0023367768 -1.0712e-41 -0.0027472025 -0.0015560541 -0.001555928 -9.536e-42 1.641562e-22
-0.00650258 0.001890743 -0.0036539088 6.0878e-41 -1.6102309e-05 -1.4775e-41 0.00029939774 -0.003469836
-0.004926196 -0.001184545 -3.5876572e-05 0.0028683373 8.905948e-09 0.0007744579 -7.913e-42 -0.0040268754
0.004947583 -0.0059929504 0.004948834 0.005777576 0.0022876738 0.00061019463 0.0005701064 0.00061194383
0.00029363338 -1.3584e-41 -0.0047367555 0.009715346 -0.010145847 -0.0049083442 -0.0004244076 -0.003871724
-0.007868607 0.0142499395 -0.0006468229 0.0010267057 0.000642287 0.0004019301 0.00017078554 0.000116479816
-0.00022164074 -0.0023807657 -0.00046510302 -0.004670786 -0.0032419208 -0.00601874 -0.003916365 0.0015622512
-0.00015343995 0.000859789 0.0030139599 0.005122865 0.00036896754 -0.0030623367 -0.0044478313 0.003969225
-0.0009471659 0.009314381 -0.007582389 -0.006381216 0.0036803787 -0.005777571 0.008348411 0.0053864447
0.0034492281 -0.00022297847 -0.0053126295 -0.0003134317 0.004979714 -0.0024178703 -0.005872451 0.008192627
00000000: c5e7 edbb d764 a83b 85ef edbb 55fd 04bc
00000010: c14a 0ebb 37a0 7a39 64db d639 b4db 6b39
00000020: e80e 15b9 ae0a 0000 ddcc ebb9 c826 1dbc
00000030: 6ed6 0b3c 162a 2c3a 76df bc3b e50c a93b
00000040: e46d bd3b 71b9 e3bb c2d4 d539 5e63 c8ba
00000050: c373 b6ba 59fa 273a afd8 f6b9 1365 75ba
00000060: 5e68 7f3a 7481 493b b2d8 9e3a 3624 b73b
00000070: 97e4 713b 520d 043c 11f6 ce3b 58b3 00bb
00000080: e38c 3cb8 2df4 c93a 07e7 27bb 054e a6bb
00000090: c0e9 1737 4f7b 3eba 191a 9f3b efcc 8e3a
000000a0: a4df 823a 9026 00bc 6843 323b 7465 a13b
000000b0: ed82 25bb b50c 873a d48b abbb aca9 ab3b
000000c0: 4584 76bb 0cf2 9ebb acac a43b c5a8 91ba
000000d0: 64af 6ebb 6292 733b 845b e43a ddcd 77bb
000000e0: 320f 41ba c521 caba e1de 2f3b 8127 07b5
000000f0: 8397 cd3b cbe7 27bb 38d7 08bc d118 e53b
00000100: 88dd 313b efc3 4d3a 0cc5 0bbc 83cf 913b
00000110: d889 d73a 5cf4 7bb9 af82 cbba 8696 873b
00000120: ed02 e333 cb32 8f3b 25ea 9cba a5bb eebb
00000130: d6d7 bbbb b4cc fab9 5c70 8e3b ca1a 61bb
00000140: 5575 afba 900e 65ba 1083 1632 c493 123c
00000150: f09e 423b 5d2d 44bb 7752 223b 6ae6 74ba
00000160: 39c1 813b 91fe 75bb ff8f 87b9 8440 263b
00000170: 2e27 da3b 8fe4 0b39 5997 a43b 6609 ad38
00000180: 8c11 1d3a 4774 d63a 6711 113b 7e62 02bb
00000190: 5c87 ef3b 703d b93b fc76 ad3a bc14 863b
000001a0: 4825 b93b d4e7 8d3b 69e7 463b 4594 58ba
000001b0: f8e3 39ba a35c 15bb fd43 85ba accd 1abb
000001c0: e7d3 1c3c 39ee f6b9 0e0d 5536 7ff1 0aba
000001d0: e1e0 d13c 8d23 33b8 7dac f4ba cf14 28ba
000001e0: f843 753b 6e4b a33b b050 8539 f192 58ba
000001f0: 22e6 74ba be92 c1bb b93d c1bb 2404 0080
00000200: 91d4 ef3c ebec 2b3a 6dbc c9b8 4836 1ebb
00000210: 8593 d5bb b00e 9eb9 264c 97b9 24d2 05bc
00000220: b62f a33b 8185 6d26 3dae 9d0c 7b63 ac39
00000230: 53cd 6bbb 858d e5ba fc1a d5bb 8638 67bb
00000240: 6e64 a1bb 1510 0d3c cf12 0080 c6fd 7db8
00000250: 899e 2a2d c182 ad3a 60fe 20af 38fd 3ebc
00000260: c590 d0ab 8e7d 2e14 69d0 6a0c 6e55 d2b9
00000270: 134f 843b 226d dc02 1413 0080 40dc c2bb
00000280: b915 a5af 5496 beb8 554c 373c 0c42 86b8
00000290: 163b 76b2 c604 0eb3 e52e 853a 60bc 843a
000002a0: 8967 e980 5229 183b be76 2bbb bcb7 84ba
000002b0: 2dc5 45bb 6bcc 7a30 488a 882d 6b00 0400
000002c0: 7424 0a2d 9c24 19bb dc1d 0080 690a 34bb
000002d0: 83f4 cbba 48f0 cbba 951a 0080 e273 461b
000002e0: 9813 d5bb cfd2 f73a 6b76 6fbb b4a9 0000
000002f0: 7213 87b7 3029 0080 7cf8 9c39 3066 63bb
00000300: ed6b a1bb bc42 9bba 2d7a 16b8 b7fa 3b3b
00000310: c600 1932 fd04 4b3a 0f16 0080 e1f3 83bb
00000320: 561f a23b 8360 c4bb d429 a23b d251 bd3b
00000330: ccec 153b 78f5 1f3a 3173 153a db6a 203a
00000340: cef2 9939 de25 0080 c936 9bbb 1d2d 1f3c
00000350: c43a 26bc 2dd6 a0bb 0683 deb9 c0bc 7dbb
00000360: 54eb 00bc 9478 693c 8d8f 29ba 8792 863a
00000370: 275f 283a 25ba d239 e514 3339 a046 f438
00000380: 3c68 68b9 9f06 1cbb 12d9 f3b9 650d 99bb
00000390: 6876 54bb da38 c5bb da54 80bb 74c4 cc3a
000003a0: b9e4 20b9 7763 613a db85 453b b5dd a73b
000003b0: fc71 c139 7cb1 48bb 1dbf 91bb 4610 823b
000003c0: 3a4b 78ba 589b 183c b075 f8bb 8519 d1bb
000003d0: 8232 713b c751 bdbb c6c7 083c c680 b03b
000003e0: 720c 623b 54cf 69b9 9115 aebb 1754 a4b9
000003f0: de2c a33b 2275 1ebb b06d c0bb 5e3a 063c

exp_avg_sq f4 [57, 200]
0.00027217425 0.00024553298 0.00027217678 0.00019620982 0.00023066679 0.00013356018 0.00013345611 0.00013362891
0.00013869202 3.839805e-16 0.00013804642 0.00025753336 0.0002470579 0.00015474806 0.00023314191 0.00023104584
0.00024381578 0.00017539698 0.00015543094 0.00015728342 0.00016269287 0.00013901637 0.00015191991 0.00016154979
0.00015982435 0.00016474676 0.00018358434 0.00016670932 0.00015327602 0.0001844519 0.00013403592 0.00019566096
1.403355e-07 0.00015106576 0.00011576526 0.0001670464 0.00014021884 0.0001020398 0.00021898498 0.00022215088
0.0001921621 0.00017733962 0.00013941679 0.00012530865 0.00022755947 0.00017542076 0.00017464791 0.000243971
0.00020470902 0.0002141171 9.56928e-05 0.00012349729 0.0002493512 0.00025671185 0.00020917258 0.00023697983
0.00020790694 0.00013600165 0.00020660335 8.831279e-12 0.00023819259 0.00014940636 0.00017130465 0.0002764032
0.00029563866 0.00014907923 0.00025973283 0.0001880535 0.00018021346 0.00015974362 0.0003427577 0.00017491149
3.8220256e-12 0.0001476183 0.00018587871 0.0002663338 0.00011623096 0.00026180336 0.00023418687 0.00051327294
7.082282e-05 4.0760406e-06 1.564548e-12 0.00019168775 0.00016117208 0.00017606282 0.00048260376 0.00017039177
0.00019928001 0.00027377057 0.00014738203 0.00017454886 0.00016269262 0.00011541869 0.00023323279 0.0001921654
0.0001410976 0.000184768 0.00012773876 8.381237e-05 0.00017076975 0.00015993197 0.00026332118 0.00017360898
0.00016076218 0.00012621252 0.00020420837 0.00014208713 0.000105225285 8.1704115e-05 0.0001871866 0.00017503108
0.0001932626 0.0002629358 0.00014765738 0.00015784275 0.0009107264 1.403321e-07 4.2822638e-05 2.61967e-05
0.00021117613 0.00036397495 9.290624e-05 9.0668436e-05 7.8424906e-05 0.00017710582 0.00017806794 1.5229388e-14
0.0014619762 0.000135216 0.00021206641 0.00023795168 0.00013022138 0.00016114663 0.000136214 0.00029278544
0.0003639678 1.473222e-13 3.395724e-14 0.00031321336 0.00011621201 3.668666e-05 0.00016163653 3.450997e-05
0.00018717852 0.00022179032 2.8877524e-15 2.80826e-07 3.9797072e-13 0.00026332153 6.156159e-13 0.00023656526
3.097543e-13 4.5441966e-14 3.5846865e-14 0.000101308025 0.00010378281 2.4992591e-14 2.345672e-15 0.00020679936
7.04344e-13 5.6232466e-07 0.00021834075 2.808342e-07 1.8151532e-12 2.401655e-12 0.0004328332 0.0004328248
2.0921367e-14 1.7143437e-05 0.000116484945 0.00019074937 0.00027919697 8.8552635e-13 4.262251e-13 2.045334e-14
3.8621995e-13 1.3031865e-05 9.269341e-18 0.0001631548 1.925927e-05 1.9259107e-05 1.8381765e-17 6.148531e-14
0.00026321373 0.00013674998 0.00019622566 1.7348466e-14 0.00016868938 1.04115325e-20 2.1582933e-05 0.00026022768
0.00013493242 2.4215919e-05 1.4038295e-07 6.945704e-05 1.5720514e-12 0.00022092764 1.4602196e-14 6.8992376e-05
0.00018133187 0.0002089698 0.00018133306 0.00011322422 0.00013987576 0.00011215181 0.00011012762 0.000112232556
0.00011738054 1.6459336e-16 0.0001149383 0.00019585766 0.00019090789 0.000131315 0.00018244343 0.00018936482
0.00020137969 0.00014555112 0.00012113761 0.00013558766 0.00013779046 0.000115078634 0.00012904029 0.00013613858
0.00013216339 0.00012381734 0.00015046744 0.00011805818 0.00012578197 0.00012422448 9.8068995e-05 0.00013408567
9.947941e-08 9.925509e-05 0.00010242549 0.000147568 0.0001193256 0.00010027782 0.00014065471 0.0001387424
0.00018929373 0.00015095774 0.00013150721 7.562447e-05 0.00014900307 0.00013930729 0.00013325953 0.00016301435
0.00016109989 0.00018457064 6.281077e-05 0.00011176269 0.00019767665 0.00026681335 0.00013901341 0.00012521769
00000000: 9cb2 8e39 e1ba 8039 f3b2 8e39 acbd 4d39
00000010: 25df 7139 4a0c 0c39 5af0 0b39 bd1e 0c39
00000020: db6d 1139 8559 dd25 8ec0 1039 8b05 8739
00000030: 8d87 8139 de43 2239 8e77 7439 e544 7239
00000040: cda8 7f39 c5ea 3739 2dfb 2239 72ec 2439
00000050: 8998 2a39 ecc4 1139 b14c 1f39 b165 2939
00000060: 8696 2739 dfbf 2c39 8c80 4039 b1ce 2e39
00000070: b8b8 2039 6e69 4139 fe8b 0c39 572a 4d39
00000080: 21af 1634 6867 1e39 00c7 f238 2d29 2f39
00000090: b507 1339 33fe d538 559f 6539 2cf1 6839
000000a0: 1f7f 4939 3ef4 3939 6930 1239 4965 0339
000000b0: 089d 6e39 27f1 3739 b121 3739 77d2 7f39
000000c0: 29a7 5639 9f84 6039 aeae c838 0d7f 0139
000000d0: 5abb 8239 4897 8639 5655 5b39 ca7d 7839
000000e0: 9801 5a39 aa9b 0e39 aaa3 5839 8b5c 1b2d
000000f0: 56c3 7939 f7a9 1c39 3ea0 3339 36ea 9039
00000100: f3ff 9a39 2752 1c39 c02c 8839 3a30 4539
00000110: aff7 3c39 da80 2739 29b4 b339 7268 3739
00000120: bf79 862c fcc9 1a39 70e8 4239 b8a2 8b39
00000130: 06c1 f338 a742 8939 0f90 7539 2a8d 063a
00000140: b686 9438 ecc4 8836 c830 dc2b caff 4839
00000150: 4d00 2939 819d 3839 fb05 fd39 31ab 3239
00000160: d2f5 5039 dd88 8f39 908a 1a39 1a07 3739
00000170: 7898 2a39 f00c f238 f38f 7439 0280 4939
00000180: 99f3 1339 48be 4139 9df1 0539 6cc4 af38
00000190: a810 3339 69b3 2739 5f0e 8a39 ce0a 3639
000001a0: 4592 2839 ea57 0439 c420 5639 39fd 1439
000001b0: 65ac dc38 9058 ab38 8547 4439 8c88 3739
000001c0: 89a6 4a39 a5da 8939 7ad4 1a39 9782 2539
000001d0: d0bd 6e3a 32ae 1634 759c 3338 fcc0 db37
000001e0: 296f 5d39 e4d3 be39 a8d6 c238 3f25 be38
000001f0: 0d78 a438 7bb5 3939 c0b7 3a39 942c 8928
00000200: c89f bf3a c5c8 0d39 255e 5e39 ab82 7939
00000210: 098c 0839 78f9 2839 abd4 0e39 ff80 9939
00000220: eed2 be39 bcde 252a 08ee 1829 c936 a439
00000230: d9b6 f338 00e0 1938 fa7c 2939 ccbe 1038
00000240: 5a45 4439 6390 6839 a115 5027 6ec4 9634
00000250: a009 e02a 6b0e 8a39 cd47 2d2b 810e 7839
00000260: 4d60 ae2a 05a7 4c29 9f70 2129 5575 d438
00000270: f9a5 d938 fe1c e128 0306 2927 48d8 5839
00000280: 5641 462b a8f2 1635 66f2 6439 8fc5 9634
00000290: c975 ff2b 5f00 292c e4ed e239 c3ec e239
000002a0: 6371 bc28 40cf 8f37 6149 f438 e503 4839
000002b0: 2f61 9239 e640 792b 83f1 ef2a 313a b828
000002c0: 296c d92a 6fa3 5a37 3afd 2a23 8814 2b39
000002d0: f88e a137 9e8e a137 b78a a923 de73 8a29
000002e0: f3ff 8939 8b64 0f39 edc1 4d39 d742 9c28
000002f0: 36e2 3039 15ab 441e ff0c b537 2b6f 8839
00000300: a57c 0d39 4a23 cb37 2cbc 1634 77a9 9138
00000310: 1f3f dd2b d0a8 6739 5f86 8328 00b0 9038
00000320: e723 3e39 e71e 5b39 3924 3e39 ca72 ed38
00000330: 9dab 1239 0b33 eb38 51f4 e638 655e eb38
00000340: 332a f638 63c3 3d25 080b f138 245f 4d39
00000350: 722e 4839 9ab1 0939 494e 3f39 3b90 4639
00000360: 7329 5339 159f 1839 420b fe38 892c 0e39
00000370: d87b 1039 5f56 f138 fd4e 0739 6cc0 0e39
00000380: 5795 0a39 f7d4 0139 ccc6 1d39 0196 f738
00000390: 57e4 0339 4142 0239 64aa cd38 5999 0c39
000003a0: 62a1 d533 2c27 d038 44cd d638 7cbc 1a39
000003b0: 723e fa38 3f4c d238 b67c 1339 617b 1139
000003c0: 267d 4639 694a 1e39 33e5 0939 9498 9e38
000003d0: b53d 1c39 0413 1239 95bb 0b39 d5ee 2a39
000003e0: ecec 2839 4e89 4139 46b9 8338 2362 ea38
000003f0: 6c47 4f39 15e3 8b39 21c4 1139 de4c 0339

exp_avg f4 [57]
0.0018290535 0.0064537623 0.0038184654 0.0017253828 -0.0008708941 -0.0016749528 0.0038972162 0.0011350679
-0.0005273158 0.0032430112 -0.0008756178 -0.004515439 -0.0043167737 -0.012871997 0.004724665 0.0032261931
-0.0037372387 0.0017197912 -0.0011384708 0.0030982757 -0.00047417797 -0.004125334 0.0024512943 0.0023167597
0.0021075145 0.0021869692 0.00033754288 0.0013370346 0.0023632746 0.0019434363 0.0024109841 0.0018093962
0.0004002622 0.00012744471 6.0057617e-05 0.0012096635 -0.000362832 -0.001373419 0.0015755737 0.00031322005
8.51685e-05 -0.00021602966 0.0038054835 0.0025540178 -0.0018397288 0.00071368954 0.0023102092 -0.00044233445
-0.0045875427 0.0022549934 -0.0014804763 0.00073653465 0.00031900196 -0.0040157563 0.003964297 -0.00026591995
0.00022417936
00000000: dabc ef3a 157a d33b 383f 7a3b 3d26 e23a
00000010: b74c 64ba 178a dbba 7068 7f3b 8fc6 943a
00000020: 903b 0aba b388 543b b789 65ba 3ff6 93bb
00000030: b973 8dbb 12e5 52bc 5dd1 9a3b 8a6e 533b
00000040: 76ec 74bb 9e6a e13a be38 95ba 710c 4b3b
00000050: 179b f8b9 cf2d 87bb e5a5 203b c7d4 173b
00000060: 3a1e 0a3b 4153 0f3b 3df8 b039 703f af3a
00000070: 2be1 1a3b e7ba fe3a 9a01 1e3b 4329 ed3a
00000080: 48da d139 aea2 0539 60e6 7b38 928d 9e3a
00000090: 7d3a beb9 4b04 b4ba 7b83 ce3a af37 a439
000000a0: 7e9c b238 0586 62b9 6b65 793b 4f61 273b
000000b0: 0e23 f1ba e516 3b3a e166 173b 20e9 e7b9
000000c0: 1953 96bb 83c8 133b 8b0c c2ba 0114 413a
000000d0: b83f a739 9b96 83bb efe6 813b 2c6b 8bb9
000000e0: b011 6b39

exp_avg_sq f4 [57]
0.00024052574 0.00017051166 9.28997e-05 0.0003038628 0.00016074366 0.00025110648 0.00014443533 0.0003957819
0.00013308851 0.00044850312 0.00030400563 0.00011766219 0.00010177005 0.00030694457 0.00019545553 0.00018291401
0.00050360913 0.00019025382 0.00020599931 9.76068e-05 0.0003492203 0.0001796343 0.00013752806 0.00021911255
0.00021293314 0.00023135956 0.000260157 0.00033457816 0.00012891398 0.0002458084 0.00033181297 0.00030924598
0.00016323663 0.00020640835 0.00025348034 0.00012625742 0.00032899095 3.5319405e-05 0.00020141513 0.00024633508
0.00012432586 7.472589e-05 0.0001814705 0.00027009269 0.00011823566 0.00021188 0.00019962463 0.00026791613
0.000120048644 0.00022567995 9.5178446e-05 0.00013109327 0.0001465596 0.00011616055 0.00030382467 8.382431e-05
0.00026186023
00000000: a335 7c39 60cb 3239 26d3 c238 c64f 9f39
00000010: 4c8d 2839 f1a6 8339 9073 1739 f380 cf39
00000020: ad8d 0b39 1225 eb39 f262 9f39 68c1 f638
00000030: 616d d538 67ed a039 32f3 4c39 9bcc 3f39
00000040: a304 043a df7e 4739 8501 5839 40b2 cc38
00000050: 8e17 b739 375c 3c39 6835 1039 94c1 6539
00000060: ce46 5f39 1c99 7239 ae65 8839 526a af39
00000070: 152d 0739 d8df 8039 2ff7 ad39 4b22 a239
00000080: 802a 2b39 526f 5839 8ee5 8439 f863 0439
00000090: 6b7c ac39 ec23 1438 f632 5339 8926 8139
000000a0: 785d 0239 28b6 9c38 1e49 3e39 3a9b 8d39
000000b0: 49f5 f738 1b2c 5e39 5452 5139 1877 8c39
000000c0: a0c2 fb38 80a4 6c39 8a9a c738 1576 0939
000000d0: cbad 1939 389b f338 a84a 9f39 d5ca af38
000000e0: 494a 8939
