BD1/bd1_models/bd1_bindingdb_curated/NN_computed_descriptors_scaffold_regression/e5b599dc-408f-4099-9397-776a114f2d3f/best_model/checkpoint1.pt (torch, 992317 bytes, 24 tensors)

layers.0.weight f4 [92, 200]
000000 4d 58 1e 3c c5 c6 78 3d 60 31 e3 3c 75 aa 46 bd
       0.009664607 0.060736436 0.027733505 -0.048502404
000010 99 57 80 bd 49 f1 c1 bb f1 bb cb bc bf 2b 2c bc
       -0.06266708 -0.005918656 -0.02486989 -0.010508477
000020 08 11 d6 bc b0 40 a6 00 9c ba b9 3c 3a c1 36 bb
       -0.026131168 1.5267898e-38 0.02267199 -0.0027886168
000030 92 d4 7b bc 64 8d bf 3c f1 ac 81 bd 90 82 a0 bc
       -0.015370505 0.02338285 -0.06331814 -0.019593507
000040 a9 f2 38 3d f4 9c f8 bd 24 5c f8 bc 0e ab 9c bc
       0.045153294 -0.121393114 -0.030317374 -0.019124534
000050 f1 3e a9 bc a9 68 cf bb e3 b6 e0 bb 9a 11 2f bd
       -0.020659896 -0.006329615 -0.0068577393 -0.042741396
000060 6e 34 a6 3c 2f c1 fd b9 5a de b0 3c 7c 93 59 3c
       0.020288672 -0.00048399853 0.0215904 0.013279792
000070 b0 28 4d 3d 0b db 22 bd 0f 0c e1 bb dc 41 4f 3d
       0.05008763 -0.039759677 -0.0068678926 0.050599918
000080 e7 0c 04 3d 71 6e 1c bd ab ef 4a bd cd 2d 86 bd
       0.032238867 -0.038191263 -0.04954497 -0.065517046
000090 7a d6 1d bb f8 04 6b 3d ee 8f f6 3b 28 31 a3 bd
       -0.0024084137 0.057377785 0.007524482 -0.0796836
0000a0 32 9c 98 bc 4c ec f7 bc c4 55 e7 3d dd 32 2e 3d
       -0.018629167 -0.030264042 0.11295655 0.042528976
0000b0 53 58 9b bc e5 f4 95 3d 60 0c 85 bd 40 1e 48 bd
       -0.018963015 0.073221005 -0.06496501 -0.048856974
0000c0 7e fc 8c 3d 0b e7 3b 3a 73 b4 15 3d 08 1f 7f 3b
       0.068840966 0.0007167912 0.036549043 0.0038928408
0000d0 bd d6 26 3d 66 bd eb 3c 12 80 a4 3c 26 ee 84 3c
       0.040732134 0.028776836 0.0200806 0.01622684
0000e0 68 72 28 bc 38 c1 14 bc fe d7 24 bd b8 f7 37 80
       -0.010281183 -0.00907927 -0.04024505 -5.139817e-39
0000f0 1f e4 7d bc b4 1a 0c 3d 1d 6f 0d bc d5 2f aa 3c
       -0.015496283 0.034205154 -0.0086324485 0.020774761
000100 ae 42 10 3c 68 db 34 bd 18 85 11 3d 24 d5 a8 bc
       0.00880496 -0.044154555 0.03552732 -0.020609446
000110 4e 58 12 bd eb 32 62 bc c7 c1 f8 bc 11 1c 35 3c
       -0.035728745 -0.013806085 -0.030365838 0.011054055
000120 51 3a 20 00 a9 0b b8 bc ff 51 57 3c cc cd 76 bd
       2.959656e-39 -0.022466497 0.013142108 -0.060254857
000130 88 8a b4 3b 74 02 77 bb bc 57 95 3d 4e ab 60 3d
       0.0055096783 -0.003769067 0.07292125 0.05485087
000140 56 1a 1c 3d fe 72 c5 3c 93 48 2f 91 dd 69 a0 bd
       0.038111053 0.024102684 -1.382743e-28 -0.07832692
000150 6f c3 36 3d 86 00 93 3c fc 8c 22 bd f4 34 4c 3c
       0.044619974 0.017944586 -0.039685234 0.012463797
000160 7b 39 45 bd c6 0d 9f 3d 61 2b 19 3d ee f6 ae 3d
       -0.04815052 0.07766299 0.037394885 0.08543192
000170 d1 0f ab 3d 4a 4d da bc ba c5 8e 3b 9b 23 29 3c
       0.08352626 -0.026648182 0.004357067 0.01032343
000180 f1 64 5a bc fc 47 28 3d b3 3d f3 bc 12 29 3c 37
       -0.01332973 0.041084275 -0.029692506 1.1215236e-05
000190 45 f2 aa 3c 63 7d de 3c 1d 6d b8 b8 f6 1c 42 3c
       0.020867476 0.027159398 -8.794128e-05 0.011847725
0001a0 cc 66 bb 3b c3 a0 5e bd 7a 7d 3d 3d 15 7e 59 bd
       0.0057190415 -0.054352533 0.046262242 -0.053098757
0001b0 46 1d 14 bd b1 5d 6f bc 4f aa 84 3b 3e 46 4f bc
       -0.03616073 -0.01460974 0.0040486227 -0.012651024
0001c0 f8 74 d0 bc d8 81 28 bc 62 97 0e bc 5d 0f 14 bc
       -0.0254464 -0.010284863 -0.008703085 -0.009036866
0001d0 80 ad 28 3d b2 ba 07 3c 73 9a 89 3c 76 b5 53 3c
       0.041181087 0.008284258 0.01679728 0.012921682
0001e0 f0 74 3f bd 24 4c 02 bd e7 9d 0f 3d 64 24 6f 3d
       -0.04674238 -0.031810895 0.035062697 0.058384314
0001f0 07 e7 50 bc 74 5c 81 3c a0 66 87 3c b4 31 e2 00
       -0.012750394 0.015791155 0.016528428 2.0772652e-38
000200 25 ab 46 3d 95 22 c0 bd c5 f4 42 bd 56 62 be 3c
       0.04850306 -0.09381596 -0.04759671 0.02324025
000210 b4 2a 3f bb 81 f9 ca bc 01 76 af bd a7 56 dc bb
       -0.002916974 -0.024777176 -0.08567429 -0.006724197
000220 69 b4 67 bd f7 0b 68 00 eb c4 6c 80 c0 b8 ad 3c
       -0.056568537 9.555184e-39 -9.988874e-39 0.02120626
000230 3c 48 5d 3c 56 10 9f bc d7 33 d5 3d f5 38 54 3c
       0.013505992 -0.01941697 0.10410278 0.012953033
000240 4c e4 20 bd 16 f6 25 bd 5c 00 62 80 1d a9 9e 3c
       -0.03928022 -0.04051789 -9.000008e-39 0.019367749
000250 c7 5c 49 00 5b 78 6b bb 26 5e 93 00 5f 95 14 bd
       6.737273e-39 -0.0035929892 1.3533592e-38 -0.036275264
000260 34 1c ea 09 98 ad 5e 00 9a d9 63 01 f1 83 42 bd
       5.6359973e-33 8.69481e-39 4.1849437e-38 -0.04748911
000270 cc 38 07 bd 64 0f 13 80 26 65 0d 00 c2 67 00 bd
       -0.03301315 -1.750396e-39 1.230147e-39 -0.03134895
000280 3f 2d 8f 83 f3 92 0a 3c b0 2a 81 bd de 07 9f 3c
       -8.415173e-37 0.008457887 -0.0630697 0.019412931
000290 87 63 a4 00 99 c6 01 85 f8 c9 08 bd eb c3 bb bc
       1.5096725e-38 -6.1020275e-36 -0.033395737 -0.02292057
0002a0 f6 81 9f 80 a8 54 79 3c 3f f2 98 bb 91 13 9e ba
       -1.4648465e-38 0.0152179375 -0.00466755 -0.0012060275
0002b0 3a 61 b2 3c b0 d1 4e 80 bf d2 21 00 13 02 a7 00
       0.021774877 -7.23839e-39 3.106173e-39 1.5337272e-38
0002c0 f4 b3 0f 85 de 66 b1 3c 68 ce 79 80 e2 ae 55 bb
       -6.75688e-36 0.021655496 -1.118614e-38 -0.003260546
0002d0 fe 81 17 bd d5 af 1f bb d2 ba 4e 00 df 1f ad 81
       -0.036989205 -0.0024366279 7.230187e-39 -6.3595896e-38
0002e0 93 84 9e bd 99 a8 93 bd f0 44 a0 3c c9 9e 93 80
       -0.0774013 -0.07209892 0.019564122 -1.355678e-38
0002f0 10 09 dc bc 58 94 25 00 7e c2 8a 3c c9 43 1f 3d
       -0.02685979 3.451129e-39 0.016938444 0.038883004
000300 8b ac a7 bc 40 02 37 bd e8 d5 c4 3c 63 86 82 bd
       -0.020468017 -0.04467988 0.02402778 -0.063732885
000310 94 13 0c 80 5d a0 40 3d be 8d 0f 80 9a 2c 19 3e
       -1.109049e-39 0.047027934 -1.42838e-39 0.1495842
000320 d7 6d 70 3c c7 6c 81 bb 29 61 76 3c d9 79 2a bd
       0.014674625 -0.003949735 0.015037813 -0.04162011
000330 ba 7b 82 bd 18 b7 5a bc 07 31 9b 3b bd 7a ec 3c
       -0.06371255 -0.013349317 0.004736069 0.02886712
000340 59 e2 6e bc 1c ac 8c 00 0f 65 c0 3c 5c 63 76 3c
       -0.014580333 1.291871e-38 0.023485688 0.015038338
000350 8f 1d 2d 3d 51 d0 07 3c d5 2e cb bd b2 ec 0e 3c
       0.042264517 0.008289413 -0.09921042 0.008723425
000360 24 73 80 3d 43 16 cd bd e4 1d 34 3d 2c 46 98 3c
       0.06271961 -0.10014012 0.04397382 0.018588148
000370 14 69 86 3b 5a c6 1f 3d 55 ab 3e 3d 56 04 51 3c
       0.0041018818 0.039007522 0.046550114 0.012757381
000380 4e 71 0c bc 19 93 4f bc 85 a6 0a 3d 43 f1 b3 3c
       -0.008571936 -0.012669348 0.03385021 0.021965628
000390 0e 5d 0c 3d 76 70 38 bc 90 1c 52 3c 45 a5 7a 3d
       0.03426843 -0.0112572815 0.012824193 0.06119277
0003a0 7d 83 e8 3c e0 bd f8 3b 07 66 40 bd 42 8d 80 3b
       0.028383011 0.0075909942 -0.0469723 0.0039230892
0003b0 91 f7 3d bd 75 c6 90 bc c0 b7 02 3d aa 82 c1 bd
       -0.046378676 -0.017672757 0.03191352 -0.0944875
0003c0 78 46 1f bd 21 31 cc 3b 48 a7 99 3d e3 ce 32 3c
       -0.038885564 0.0062314426 0.075026095 0.010913583
0003d0 8a 98 8a bb 43 1f a3 bc a8 b4 fa b9 30 8c ac bd
       -0.00422961 -0.019912368 -0.00047818315 -0.08425176
0003e0 f0 5f cc 3d 6e 8f 38 bd 62 7f 8b 3c f3 a5 75 3b
       0.09979236 -0.04505866 0.017028514 0.0037482947
0003f0 5d 1c 54 3d 2b a6 26 3d e9 77 33 bc 5e 3c 39 bd
       0.05178486 0.040685814 -0.010953882 -0.045223586

layers.0.bias f4 [92]
000000 25 28 79 3f 4c f0 78 3f 1a f3 7b 3f 9d e3 7a 3f
       0.9732688 0.97241664 0.9841782 0.9800356
000010 92 6f 7c 3f 82 f8 7b 3f 31 3f 7c 3f 2e 96 7c 3f
       0.9860774 0.9842607 0.9853392 0.98666656
000020 f8 54 7e 3f 14 38 77 3f 08 d0 78 3f 95 03 71 3f
       0.993484 0.96569943 0.9719243 0.9414609
000030 04 8c 74 3f 39 dc 7b 3f 79 62 7b 3f 3f 22 78 3f
       0.95526147 0.9838291 0.9819713 0.96927255
000040 88 fe 78 3f f9 19 7c 3f 6d 50 73 3f 1d 3f 7c 3f
       0.97263384 0.9847713 0.95044595 0.98533803
000050 cd eb 7b 3f 28 03 7d 3f b8 47 7a 3f 8b 5e 78 3f
       0.9840668 0.9883294 0.97765684 0.9701926
000060 e3 e0 7a 3f 83 76 7a 3f 4d 7f 7d 3f 70 c4 79 3f
       0.979994 0.97837085 0.9902237 0.97565365
000070 85 a7 78 3f 59 5a 7d 3f 56 cb 7a 3f 44 e1 77 3f
       0.97130615 0.98965985 0.97966516 0.96828103
000080 12 38 79 3f 62 59 75 3f 7e 57 78 3f 41 ea 73 3f
       0.9735118 0.9583951 0.970085 0.9527932
000090 80 50 7d 3f 9f c6 79 3f c9 81 7c 3f ab 8f 7c 3f
       0.9895096 0.97568697 0.98635536 0.9865672
0000a0 8e b0 72 3f 27 e7 7c 3f d7 24 7b 3f aa 44 7b 3f
       0.9480065 0.9879021 0.9810309 0.9815165
0000b0 96 fc 79 3f ac 94 7a 3f 91 be 7b 3f cd 9b 7e 3f
       0.9765104 0.97883105 0.98337656 0.99456483
0000c0 7a 20 7d 3f 86 96 81 3f 73 ce 7d 3f c0 07 79 3f
       0.9887768 1.0124061 0.9914314 0.9727745
0000d0 16 ad 7a 3f 49 8a 7c 3f b3 67 7a 3f 0d 57 7d 3f
       0.9792036 0.98648506 0.9781448 0.98960954
0000e0 72 aa 7c 3f 89 08 7b 3f d9 6e 7b 3f d8 00 7d 3f
       0.9869758 0.980599 0.98216015 0.9882941
0000f0 b3 9b 79 3f df a5 7a 3f 35 59 7a 3f 21 56 7a 3f
       0.97503203 0.9790935 0.9779237 0.9778767
000100 02 6e 75 3f 61 7b 7b 3f 1b a6 78 3f 78 b1 7a 3f
       0.95870984 0.98235136 0.97128457 0.97927046
000110 c9 25 7b 3f 5a 4d 7c 3f f7 de 7c 3f f3 cf 7b 3f
       0.9810453 0.9855553 0.9877772 0.9836418
000120 de 8c 76 3f c8 e0 7a 3f 4c ff 7a 3f ac a4 78 3f
       0.96308696 0.9799924 0.980458 0.9712627
000130 f5 fe 80 3f 6f 2a 7b 3f 89 f5 7a 3f f9 3f 7b 3f
       1.0077807 0.98111624 0.98030907 0.9814449
000140 bf 33 79 3f b4 22 7b 3f 78 3e 7b 3f 97 5d 7d 3f
       0.97344583 0.9809983 0.98142195 0.9897093
000150 58 7c 7d 3f 15 a8 76 3f 68 01 7c 3f d9 ed 77 3f
       0.9901786 0.9635022 0.98439646 0.968473
000160 2e ad 7d 3f b9 f1 7c 3f f9 9a 79 3f c4 0c 7c 3f
       0.99092376 0.9880634 0.97502095 0.9845698

layers.1.weight f4 [195, 92]
000000 8e 76 c0 3c 85 d2 3a 3d e2 42 13 bd 0e 2a 52 3c
       0.023494031 0.045610923 -0.035952456 0.012827409
000010 11 59 6b 3c c7 9e 1a bd 48 89 61 3d 67 b4 27 bd
       0.014364497 -0.037749078 0.055062562 -0.04094353
000020 e3 57 21 bc 1f c8 c5 3c 37 ea 3d bc a6 24 36 bd
       -0.009847614 0.024143277 -0.011591486 -0.044468544
000030 a5 4a 8a bb 4b 0b 07 bc ab 03 85 3c dd 03 f8 3c
       -0.004220324 -0.008242439 0.0162371 0.03027528
000040 e0 3d 33 3d d3 79 00 bc 7a 8c 89 3c e6 39 e9 bb
       0.04376018 -0.007841545 0.016790617 -0.0071174977
000050 bc ce ed bb 34 50 c5 ba 73 08 eb 3c f2 ff 01 3c
       -0.0072573107 -0.001505381 0.028690552 0.007934557
000060 3e 28 bf 3c b7 e6 1e bd b3 99 70 3c 96 55 01 b9
       0.023334619 -0.038794246 0.014685082 -0.00012334282
000070 b6 bd e5 3b 71 39 6f bc 00 09 d3 3b 85 f3 f5 3a
       0.0070111407 -0.014601097 0.006440282 0.0018764591
000080 4d c2 a9 3c 0c af 23 bd 08 31 2c bc 1b 26 10 3b
       0.020722533 -0.03996186 -0.010509737 0.002199537
000090 80 1a 4b bc 3f bd ba 3c 99 cf 21 bd 0b 8f 54 3c
       -0.012396455 0.022795318 -0.03950462 0.012973557
0000a0 b9 4e fd 3c 7b ae f2 bb 24 f8 c1 bc 27 e7 8f 3b
       0.030921327 -0.0074060536 -0.023677893 0.004391569
0000b0 3b fe 71 bc d1 ba d0 3b f0 ab ae 3c c0 9f 9d 3b
       -0.014770086 0.0063699265 0.02132222 0.0048103034
0000c0 f7 e8 f6 bb 0e fd 44 bd fe 60 99 3c 18 4d df 3c
       -0.007535096 -0.048092894 0.018723007 0.02725844
0000d0 c4 c1 db bc ff 3e 0a 3d 6a a4 01 bc be 20 82 3c
       -0.026825793 0.033751484 -0.0079127345 0.015884753
0000e0 e5 56 b8 3b a0 fd fb 3c 4d 12 74 bc 9c 13 f1 3a
       0.005625593 0.030760586 -0.014896941 0.0018392685
0000f0 18 c6 00 bc bd f7 a8 3c 54 6c c2 3a 51 0d e8 3b
       -0.007859729 0.020625943 0.001483331 0.0070816656
000100 43 cb 49 bd 0b 9e 9f 3c 35 f3 f1 3b a7 9d 9e bc
       -0.04926611 0.01948454 0.007383729 -0.019362284
000110 62 de 65 3c fc f9 1f bc 62 ba 01 bd 40 f2 0f 3c
       0.014030071 -0.009764191 -0.03167189 0.008785784
000120 7c 99 b3 bc 48 3e c4 ba 68 78 df bc 36 1b 24 3b
       -0.021923773 -0.0014972175 -0.027279094 0.0025040633
000130 3f 54 ce ba 32 4c 27 bc 16 a8 d0 bc 71 a6 a4 3c
       -0.001574166 -0.0102110375 -0.025470775 0.020098897
000140 c7 9d 02 3b 4d 88 21 bc 0d 25 d6 3c 49 5e 34 3c
       0.0019930468 -0.009859157 0.026140714 0.011008807
000150 4c 61 bc bc 54 ae 80 bd cd e1 5b bc 71 86 cf 3c
       -0.022995614 -0.062832505 -0.013420534 0.025332661
000160 52 57 6e 3c b0 12 ac bc 2c f2 80 bc a8 40 49 bb
       0.014547186 -0.021005005 -0.015740477 -0.0030708704
000170 02 b2 3d ba 4e a9 a2 3c 87 eb c9 bc f0 ec ba 3b
       -0.0007236303 0.019856121 -0.024648441 0.0057045147
000180 d7 7b 2c bd cf 0e 5c 3c 8b f0 d5 3c 0e e2 eb bc
       -0.04211029 0.013431265 0.026115676 -0.028794315
000190 64 04 0e 3b 75 62 4d bc ff 8e 1d 3d 19 93 8e bd
       0.0021670097 -0.012535681 0.03846645 -0.069616504
0001a0 17 f6 4f bd 8c 83 52 3c 3c c5 1a bc 0a 12 81 3c
       -0.0507718 0.012848746 -0.009446438 0.015755672
0001b0 d9 22 51 bb 32 46 60 3c 39 bf 34 bd ff 57 2c bd
       -0.003191164 0.013688611 -0.044127677 -0.042076107
0001c0 c3 64 22 3d a5 d5 a8 bc f5 a7 60 3c 65 b2 35 bd
       0.039646875 -0.020609686 0.013711919 -0.044359583
0001d0 ab f7 b9 bc c3 9e 87 3c db da 14 bc a5 07 c5 bb
       -0.022701105 0.016555196 -0.009085382 -0.006012874
0001e0 e9 48 0d bc f1 79 b9 3c e3 0f ff 3c 7b 45 18 bd
       -0.00862334 0.022641154 0.031135505 -0.037175637
0001f0 91 39 b1 3c 77 60 6b 3c 80 aa b6 bc 65 56 a9 bc
       0.021633895 0.014366261 -0.022298098 -0.020671079
000200 66 d1 d5 3b a3 19 83 bc d4 18 4b 3c 8c 98 e4 3b
       0.0065252064 -0.016003435 0.012396056 0.006976193
000210 e0 e3 e0 3c 2f d9 06 3d 56 67 0a bd 52 60 0d bb
       0.02745241 0.032921966 -0.033789955 -0.0021572304
000220 05 6b f9 3c 47 9b ab 3b 21 fd f7 bb 72 0f 81 3c
       0.030446539 0.0052370164 -0.007568017 0.015754435
000230 0d c3 af 3c c1 43 31 bd 6c c7 5e 3b 52 c0 58 bc
       0.021455312 -0.043277506 0.0033993376 -0.0132294465
000240 29 53 35 bd 74 ee ba 3c 7d ad 10 bd bf 06 f5 bc
       -0.04426876 0.022818781 -0.0353217 -0.029910443
000250 48 0f e1 3b bf a2 91 3c ad 0b 6f 3c 7e 7a 11 3d
       0.0068682767 0.017777799 0.014590186 0.03551721
000260 98 17 18 bd 95 97 95 3c 29 af c7 3c 68 dd 82 bb
       -0.037131876 0.018260757 0.024375515 -0.003993679
000270 11 ec 7a bd b9 9d dc 3c e2 97 01 bd 26 c9 0a bd
       -0.061260287 0.026930677 -0.031638987 -0.033883236
000280 ac 58 8a 3c d8 97 5a 3c 05 f3 0b bd 1c 17 db 3c
       0.016887985 0.013341866 -0.03416731 0.026744418
000290 2b 6f a1 bc ca 7e 7e 3d 69 ed cb bc 79 9a 7b 3c
       -0.01970633 0.062132634 -0.02489348 0.015356653
0002a0 ca 21 47 bc a0 6f 34 bb f4 a2 73 bc 2e 50 c4 3c
       -0.012154052 -0.0027532354 -0.014870394 0.023964014
0002b0 73 07 be 3c 41 22 5f 3c 21 ad de bb 80 0b 30 3c
       0.023196911 0.013619007 -0.006795541 0.010744929
0002c0 ad 03 f1 bc 87 75 1f bd 74 4b 2e bc bb b7 97 bc
       -0.029420698 -0.038930442 -0.010638107 -0.018520227
0002d0 5f 48 cf bc 11 46 0e 3c e1 a0 37 3c 9f 54 9f 3c
       -0.025303064 0.008683697 0.01120779 0.01944953
0002e0 a1 a2 5f bc 6e f4 e1 3b 1e 0c af 3b a1 aa f1 bb
       -0.013649614 0.0068955934 0.0053420207 -0.007375077
0002f0 ee b8 b3 3b 51 c5 be 3a 09 32 fc 3c dc 50 1f bd
       0.005484692 0.0014554654 0.030785577 -0.038895473
000300 82 27 aa bc f4 a7 36 bb de 0a 69 3d 70 9b 14 bd
       -0.020770792 -0.0027871104 0.05689513 -0.03628105
000310 f0 f9 42 bd 62 5a 9b 3c 1d f0 0a bd f8 19 21 3c
       -0.04760164 0.018963996 -0.033920396 0.009832852
000320 2a 0f 41 bc 00 57 4d 3c 7c 26 a8 3c ec e1 24 bc
       -0.011783401 0.012532949 0.020526163 -0.01006363
000330 ce 3e 84 3c af 8f ed bc 9d ba 96 3b 5d 90 d0 bc
       0.016143229 -0.028999178 0.0045998828 -0.025459463
000340 94 98 0a bc 36 83 8b 3c 0a 24 59 bd 5b 4d 79 3b
       -0.008459229 0.01703034 -0.053012885 0.0038040492
000350 a0 77 85 3c a2 30 c3 3a 40 24 3f 3b 0c c2 94 bc
       0.016292393 0.0014891813 0.0029165894 -0.018158935
000360 d5 b8 01 bd 72 72 57 bd 4d 4d 60 bd b8 11 1e bb
       -0.03167041 -0.052599378 -0.05476122 -0.0024119448
000370 03 27 c4 3c e2 3a 1e bd 13 b6 f9 3c 75 b0 d9 bc
       0.023944383 -0.038630374 0.030482328 -0.0265734
000380 fc 65 8c bc c7 d0 c9 3c ec d5 d6 bc 00 64 35 bb
       -0.017138474 0.024635686 -0.026225053 -0.0027678013
000390 e1 3b 3c bc ff c9 2f 3c 22 41 c2 bc aa 7c 95 3b
       -0.011488886 0.010729312 -0.023712698 0.0045619803
0003a0 8c b9 80 3c fc 17 d1 bc cb 68 28 3c 16 c9 82 3c
       0.015713476 -0.025524132 0.010278891 0.015965026
0003b0 ad 54 04 bd b7 ba 33 3d 8c 35 28 ba 65 48 a7 3b
       -0.032307316 0.043879237 -0.00064166705 0.0051050656
0003c0 36 2f 35 bd 57 32 d1 bc 30 10 fc 3c a5 f7 ff 3b
       -0.044234477 -0.0255367 0.030769438 0.007811504
0003d0 3a 2a 20 bd 63 ce 9d bc 1c e2 1d bc e6 e9 2c 3c
       -0.03910277 -0.019263452 -0.009636428 0.010553813
0003e0 5a 55 40 bd 50 5c 37 3d f1 88 47 bc ed 84 7a bb
       -0.046956398 0.04476577 -0.0121786455 -0.0038226203
0003f0 06 9e c5 3c 00 6d 81 3c 01 f7 2f bc b1 bb 16 3c
       0.024123203 0.015799046 -0.010740043 0.009200023

layers.1.bias f4 [195]
000000 d8 6d 7e 3f 9d 3b 7d 3f ab 4d 7d 3f a6 49 7f 3f
       0.9938636 0.9891909 0.98946637 0.99721754
000010 4d 05 7f 3f ad 24 7f 3f 72 d8 7e 3f 0b 36 80 3f
       0.99617463 0.9966534 0.9954902 1.0016493
000020 a1 86 7e 3f cc b9 7e 3f 0b 91 7e 3f 4a b5 7d 3f
       0.9942418 0.99502254 0.9944007 0.9910475
000030 6c 11 80 3f f0 fc 7d 3f 1e 7a 7e 3f bb 44 7f 3f
       1.0005317 0.99214077 0.99405086 0.9971425
000040 ba fb 7c 3f 3d 93 7d 3f 84 dd 7e 3f 34 22 7e 3f
       0.98821604 0.9905279 0.99556756 0.9927094
000050 6c 1e 7e 3f cf f6 7d 3f 31 97 7c 3f 74 43 7d 3f
       0.9926517 0.99204725 0.986682 0.9893105
000060 46 3f 7e 3f 2f 09 7d 3f d6 90 7d 3f f4 fd 7d 3f
       0.993153 0.9884214 0.9904913 0.99215627
000070 a5 b9 7e 3f 59 54 7d 3f 1a d1 7d 3f 8e 9b 7c 3f
       0.9950202 0.9895683 0.9914719 0.9867486
000080 dd 4a 7d 3f 1e c0 7e 3f 9e 3a 7d 3f 9e a8 7f 3f
       0.9894236 0.995119 0.9891757 0.99866664
000090 90 2d 7e 3f dc 2e 7e 3f 72 73 7d 3f 89 28 7e 3f
       0.9928827 0.9929025 0.9900428 0.992806
0000a0 fe ff 7e 3f 6f e9 7c 3f 72 01 80 3f d2 8b 7e 3f
       0.99609363 0.9879369 1.0000441 0.994321
0000b0 d8 35 7c 3f c5 ae 7d 3f a9 4a 7f 3f 1e b2 7e 3f
       0.9851966 0.990948 0.997233 0.99490535
0000c0 d5 64 7d 3f de 4d 7e 3f 5c 10 7e 3f 32 ed 7f 3f
       0.9898198 0.99337566 0.9924371 0.99971306
0000d0 4a 9a 7e 3f 3d 5d 7e 3f 3f b6 7e 3f 9d 4b 7c 3f
       0.99454176 0.9936102 0.99496835 0.98552877
0000e0 20 6a 7f 3f 37 da 7c 3f 02 22 7d 3f c0 f6 7c 3f
       0.9977131 0.9877047 0.98880017 0.9881401
0000f0 37 ef 7d 3f d3 97 7c 3f 2e 8f 7c 3f 0a 44 7d 3f
       0.9919314 0.98669165 0.98655975 0.98931944
000100 1d 35 7d 3f f7 b0 7f 3f b1 4d 7d 3f ba f3 7f 3f
       0.9890917 0.998794 0.9894667 0.9998127
000110 dc 13 7d 3f 9e 10 7e 3f 9a 54 7f 3f 1a 3c 7e 3f
       0.9885843 0.99244106 0.99738467 0.9931046
000120 9d 26 7e 3f 09 87 7b 3f dd 0b 7f 3f 66 6d 7c 3f
       0.9927767 0.9825292 0.99627477 0.9860443
000130 8a 99 7d 3f 58 e2 7b 3f c7 8b 7e 3f a9 90 7d 3f
       0.99062407 0.9839225 0.99432033 0.9904886
000140 13 c6 7e 3f 98 51 7d 3f d5 a9 7c 3f 64 7b 7e 3f
       0.9952099 0.9895263 0.98696643 0.9940703
000150 91 ee 7d 3f 0a 9f 7e 3f ac 0b 7d 3f 0b f3 7e 3f
       0.9919215 0.99461424 0.98845935 0.99589604
000160 4c 24 7f 3f d8 2a 7f 3f df d1 7e 3f 8d 03 7e 3f
       0.9966476 0.9967475 0.9953899 0.9922417
000170 5c 18 7f 3f a8 bc 7e 3f fa 45 7d 3f 42 b3 7f 3f
       0.99646544 0.99506617 0.989349 0.998829
000180 7e 22 7d 3f b4 45 7e 3f e7 7e 7f 3f 54 38 7c 3f
       0.98880756 0.9932511 0.9980301 0.9852345
000190 f4 d9 7c 3f 17 72 7d 3f 8b 98 7e 3f 11 5f 7c 3f
       0.9877007 0.9900221 0.9945151 0.9858256
0001a0 2f 7d 7e 3f ad 00 7e 3f b7 a7 7e 3f 94 8a 7d 3f
       0.99409765 0.9921978 0.9947466 0.9903958
0001b0 7e bb 7e 3f 84 14 7f 3f ae 3e 7e 3f 0b 1a 7c 3f
       0.9950484 0.9964068 0.9931439 0.9847724
0001c0 c6 67 7e 3f 23 e6 7e 3f 63 0f 7d 3f 01 21 7d 3f
       0.99377096 0.9956991 0.98851603 0.98878485
0001d0 dc 99 7d 3f 78 ac 7d 3f f2 c7 7c 3f 74 cc 7d 3f
       0.99062896 0.9909129 0.9874259 0.99140096
0001e0 7f 8d 7b 3f 06 6c 7f 3f cf 8c 7f 3f c0 b2 7f 3f
       0.9826278 0.99774206 0.9982423 0.99882126
0001f0 2b 56 7c 3f 92 48 7d 3f 38 18 7e 3f f4 69 7e 3f
       0.9856898 0.9893886 0.99255705 0.9938042
000200 b2 36 7f 3f 9c fb 7d 3f 18 af 7e 3f 01 b8 7d 3f
       0.99692833 0.9921205 0.9948592 0.9910889
000210 d4 da 7d 3f 92 01 7f 3f 44 39 80 3f 04 aa 7e 3f
       0.9916203 0.9961177 1.0017476 0.99478173
000220 04 6b 7d 3f 09 dd 7d 3f 23 c9 7d 3f 3c 22 80 3f
       0.9899142 0.991654 0.99135035 1.0010448
000230 6d 3b 7f 3f 98 64 7e 3f e5 06 80 3f e8 ca 7d 3f
       0.9970005 0.99372244 1.0002104 0.99137735
000240 d5 ac 7d 3f 63 dd 7f 3f 76 7a 7e 3f 34 ec 7e 3f
       0.99091846 0.99947184 0.9940561 0.9957917
000250 e8 f8 7d 3f 69 c5 7d 3f 64 87 7d 3f 07 4f 7c 3f
       0.99207926 0.9912935 0.99034715 0.98558086
000260 e7 28 7e 3f 3d b2 7e 3f 07 0c 7f 3f a8 47 7e 3f
       0.9928116 0.9949072 0.9962773 0.9932809
000270 73 77 7f 3f 1d 89 7e 3f 5f 71 7c 3f fe b4 7e 3f
       0.9979164 0.9942797 0.9861049 0.9949492
000280 48 06 7d 3f ca 52 7f 3f 8b ea 7f 3f 74 e1 7d 3f
       0.9883771 0.997357 0.9996726 0.9917214
000290 3c b8 7e 3f 29 24 7c 3f 94 2c 7e 3f 2d 21 7d 3f
       0.9949987 0.98492676 0.9928677 0.9887875
0002a0 1f 0b 7e 3f a5 95 7d 3f 4b 99 7e 3f cc 8c 7e 3f
       0.9923572 0.99056464 0.99452657 0.9943359
0002b0 e8 44 7f 3f 85 76 7d 3f a1 88 7e 3f 49 62 7e 3f
       0.9971452 0.9900897 0.9942723 0.9936872
0002c0 f9 a8 7e 3f 08 c1 7d 3f 31 de 7d 3f c6 1f 80 3f
       0.9947658 0.9912267 0.9916716 1.0009696
0002d0 b0 e1 7c 3f 81 cf 7b 3f 90 4d 7d 3f 03 b1 7f 3f
       0.9878187 0.983635 0.98946476 0.99879473
0002e0 c8 92 7c 3f 32 e3 7e 3f 00 31 7f 3f 73 19 7e 3f
       0.9866147 0.9956542 0.99684143 0.9925758
0002f0 9b ba 7d 3f 06 4d 7c 3f a6 68 7e 3f 43 51 7e 3f
       0.9911286 0.9855503 0.9937843 0.99342746
000300 b3 f0 7d 3f 84 01 7e 3f c6 f5 7d 3f
       0.991954 0.9922106 0.99203146

layers.2.weight f4 [228, 195]
000000 02 4c 07 3d 16 67 f6 bc 13 ef 22 3d f5 d5 0a bd
       0.03303147 -0.030078452 0.03977878 -0.03389545
000010 4b 5c 85 bc e7 3e 2f bc f3 50 df ba 50 75 79 bd
       -0.01627936 -0.010696149 -0.0017037675 -0.060902894
000020 b6 ca 9b 3c e8 e1 e4 bc 31 d4 d8 b9 b2 21 88 bc
       0.019017559 -0.027939752 -0.00041356825 -0.01661763
000030 e4 4d 53 bc 9b 2b 0a bd ad 87 26 3d 88 72 53 bb
       -0.012896989 -0.03373299 0.040656734 -0.003226431
000040 f2 2d 7a bc c0 2a f6 bc ca d5 81 bc 2a 97 84 3b
       -0.015269743 -0.030049682 -0.015849013 0.0040463405
000050 22 33 8d bb c9 7a e1 3b 9e 50 cd 3c 7b f2 a8 3b
       -0.004309074 0.006881092 0.025062855 0.005155859
000060 56 ff 93 3c c1 f9 99 bb 44 6f 01 3d 6f 46 cb bc
       0.01806609 -0.0046989624 0.03160025 -0.024813859
000070 b4 91 9f b9 79 7a 46 3c b6 de a7 bc 2a 77 e3 3c
       -0.000304354 0.012114161 -0.020491939 0.027766783
000080 0e 03 c4 bc bc f6 73 bc 15 47 64 bb ef 7c b4 bb
       -0.023927238 -0.014890369 -0.0034832407 -0.0055080573
000090 46 18 8b 3c 28 7d ec bc 58 07 39 bd 37 81 c5 bc
       0.016979348 -0.028868273 -0.04517302 -0.024109466
0000a0 95 bd ca bc 90 76 01 3c b4 39 8f 3b 5a f7 23 bc
       -0.024748603 0.007901803 0.0043708924 -0.010007704
0000b0 45 6a 25 3d 60 d7 29 3b 45 7e 3e bc 31 5b 81 37
       0.04038455 0.0025915727 -0.011626785 1.5420463e-05
0000c0 1e b8 db bc bc 77 03 3c 3f 95 8a bc 13 e6 be 3c
       -0.026821192 0.008024152 -0.01691687 0.023303067
0000d0 08 f0 00 3c 2b 46 a6 bb 10 e2 95 3c 18 c9 39 bc
       0.007869728 -0.0050742826 0.018296272 -0.011339448
0000e0 cf a0 85 bd 9e 4e 23 3c e0 ed c1 bc c5 94 a1 bc
       -0.065248124 0.009967474 -0.023672998 -0.01972426
0000f0 43 c4 4b bd f4 8f 36 3c e8 a5 92 3c 42 8a 8b bc
       -0.049747717 0.01114272 0.017901376 -0.0170337
000100 4b bd da bc b7 09 0e bd ab 95 de bc cc 36 a0 bc
       -0.02670159 -0.034677234 -0.027170977 -0.01955738
000110 c5 0e 09 bd 3b 3e 10 bc 11 4f e2 bc ba 70 ed 3b
       -0.03346135 -0.008803899 -0.027625592 0.007246104
000120 fd 7c 74 bc b3 42 e5 3c 53 cd 12 bc 4f b3 3f 3d
       -0.014922378 0.027985906 -0.008960086 0.04680186
000130 8b 7e 10 bd 9b 01 d7 3c 81 01 0f bc 95 86 69 bc
       -0.03527693 0.026245883 -0.008728386 -0.014253278
000140 7a 2c f8 3b 9e 40 16 3c 8d 29 67 bb 11 d8 ee bc
       0.0075736614 0.009170679 -0.003527257 -0.029155763
000150 83 6a 16 3c c2 d7 c8 bc 5c 9f cb 3c 3c 5e 7a bc
       0.009180668 -0.024516944 0.024856262 -0.015281256
000160 e0 49 3b bd 20 a0 5a bc 0a bb 15 3c 2a 94 27 bc
       -0.04572475 -0.013343841 0.009138832 -0.010228196
000170 0e 82 d6 bc 10 a5 05 bd a2 a4 ab bc 23 ac 29 bd
       -0.026185062 -0.03262812 -0.020952526 -0.041423928
000180 cd b9 5d bc 86 3f 8d b9 67 e2 f3 bb 43 a0 b3 bb
       -0.013533068 -0.00026940944 -0.0074427607 -0.005481751
000190 19 39 54 3d f8 0b 84 bc a7 0b 3d bc 23 35 06 3d
       0.051812265 -0.016118988 -0.011538423 0.03276552
0001a0 0c ed 30 bd ae 40 49 bd 0e e7 43 bd f4 93 16 bc
       -0.043194816 -0.04913395 -0.047827773 -0.009190548
0001b0 de c2 6e 3d e8 9d 3c 3b c3 e8 34 bd 6a 04 9f 3c
       0.05829131 0.0028780643 -0.04416729 0.019411284
0001c0 cc 1c 54 bc 24 64 e3 3b 1c c6 e2 3b 25 7d 78 bd
       -0.012946319 0.006939428 0.006920589 -0.060666222
0001d0 90 c5 96 bc d7 fb 72 3c ee 81 9a 3b b4 00 e4 bb
       -0.018404752 0.014830551 0.004715196 -0.0069580916
0001e0 ac 91 9d bb fb f1 18 3c 75 30 61 3c 43 9d d0 bc
       -0.004808625 0.009335036 0.013744463 -0.025465613
0001f0 73 92 42 bc 5a ce 83 bd e4 52 b0 bb df 99 6d bb
       -0.0118757365 -0.06435843 -0.005380975 -0.0036255044
000200 9f 3a d9 ba 83 35 3c bb 75 bb 38 bd 66 15 68 bb
       -0.0016573257 -0.002871842 -0.045100648 -0.0035413145
000210 c2 83 03 bd 98 a3 f6 3c c2 fa 5b bd 48 47 0b 3d
       -0.032108076 0.030107304 -0.05370594 0.034003526
000220 83 9f 93 bb eb 6c 39 3c 6b 61 47 3c f3 ae 20 bd
       -0.0045050993 0.011317472 0.012169222 -0.039229345
000230 ed 5e 09 bd 51 e8 8c bd 69 aa a8 bb 7e 25 0d 3d
       -0.033537794 -0.06880248 -0.0051472676 0.034459583
000240 47 a8 1b bd 2d be 19 3d a3 cb d9 bc b6 3a 09 bd
       -0.03800228 0.03753488 -0.02658636 -0.033503257
000250 de 2f 95 bb 8e 76 e6 3a 36 66 ea bb 85 2e 7c 3c
       -0.0045528254 0.001758294 -0.007153298 0.0153919505
000260 2c 2e 34 bd 22 02 e8 3c 3f fd 45 b9 ce 5d d6 3c
       -0.043989345 0.02832133 -0.00018881726 0.026167776
000270 b5 d8 6a bd 04 87 c8 3b 0f 46 d6 bb 81 87 8f bc
       -0.057335574 0.0061196107 -0.0065391134 -0.017520668
000280 11 fe bf 3b 4b 5c b3 bc ed 2f 08 bc 57 1e 2a 3c
       0.0058591445 -0.021894595 -0.008312208 0.01038321
000290 cb c7 46 bb e2 4d 21 3d 71 70 eb bb 1d 19 17 bd
       -0.0030331488 0.039380915 -0.007185035 -0.036889184
0002a0 93 8e 98 3b 40 83 05 bc 30 3f db 39 ff 10 02 bd
       0.004655668 -0.008148968 0.00041818013 -0.03175449
0002b0 94 88 60 bc 25 c3 1a 3d 51 71 22 bb a3 90 cd 3a
       -0.013704438 0.03778376 -0.002478678 0.0015683364
0002c0 9a 22 2e 3b 9f 3f bd bc 7f e5 a4 bb aa 17 3a bc
       0.0026570917 -0.023101626 -0.005032241 -0.011358181
0002d0 7a 0f e7 bc 96 6d d0 bc 22 2b 0a bd 35 bf 88 bc
       -0.028205622 -0.02544288 -0.03373254 -0.016692737
0002e0 02 94 12 3d 98 ef 96 bb dc 71 41 3a 79 f9 eb bc
       0.035785682 -0.0046061985 0.0007379332 -0.028805481
0002f0 be 02 0d b9 94 06 2f bd 87 4f 60 bb ff 01 3f bc
       -0.0001344783 -0.042730883 -0.003422709 -0.011658191
000300 0a e7 94 bc 15 4f 8c bc f4 20 c1 bc cc ec bf bc
       -0.018176574 -0.017127553 -0.023575284 -0.023428343
000310 07 11 89 bb 01 7e 75 bc d4 95 df 3b a4 02 c5 bc
       -0.004182938 -0.014983655 0.006823281 -0.02404911
000320 93 28 a7 3c a4 4e 04 bc 81 ef c1 bc bb aa bb bb
       0.02040509 -0.00807539 -0.023673775 -0.00572714
000330 cd 04 b0 3b 2b d7 49 bb 07 45 0b bc 47 99 02 3d
       0.005371666 -0.0030798416 -0.008500344 0.031884458
000340 34 08 65 bc 70 d2 62 bc 7b 7f 7c bc d7 7b 9f bc
       -0.013979007 -0.0138441175 -0.015411253 -0.019468231
000350 05 a7 0f bb 6c 64 3b ba 36 b2 13 bc dd 07 cb bc
       -0.002191962 -0.0007148448 -0.009014657 -0.024784023
000360 a9 28 82 bc f8 6f 0e bd 06 44 aa bc d8 ca b5 3c
       -0.015888529 -0.03477475 -0.02078439 0.02219145
000370 d1 81 60 bd 80 1c 14 bd 5d 81 87 3c 2d ba 62 3d
       -0.054811303 -0.036159992 0.016541177 0.055353332
000380 2e c9 f4 ba 19 59 82 bc 89 6e eb bc 96 17 ff bc
       -0.0018675679 -0.015911626 -0.02873923 -0.031139176
000390 ca 4a be bc 54 8a 56 3c ff 63 ea 3b 60 c3 22 bd
       -0.023229022 0.013094503 0.0071530337 -0.039737105
0003a0 72 0d ef 3a c1 8e b1 3c fd c5 85 3c 39 2f e1 bc
       0.001823826 0.021674516 0.01632976 -0.027488338
0003b0 6e eb 00 3c d3 14 2a 3c 12 94 73 3c b8 3d b4 3c
       0.007868631 0.010380941 0.014866846 0.022002086
0003c0 42 e5 65 bc 01 1d df 3c a3 16 04 bc cb fc 9b bc
       -0.01403171 0.02723551 -0.008062038 -0.01904144
0003d0 39 97 b2 bb c2 bc b8 bc 43 cc c0 bc 81 c3 54 bd
       -0.005450156 -0.022550944 -0.0235349 -0.05194426
0003e0 c8 12 b9 3c b2 b4 7b bb 8d b5 1c bd c0 1f 9b 3a
       0.022591963 -0.0038407263 -0.038259078 0.0011835024
0003f0 c3 57 52 3c 3f f1 1a 3b aa 13 d1 bc 5c d1 1a bd
       0.012838307 0.002364233 -0.025522072 -0.037797317

layers.2.bias f4 [228]
000000 49 25 7f 3f 7c ee 7c 3f fb 7d 7c 3f 71 3e 7d 3f
       0.9966627 0.988014 0.9862973 0.98923403
000010 69 4b 7e 3f 5d 1c 7e 3f 05 9a 7e 3f 5a f5 7e 3f
       0.99333817 0.9926203 0.99453765 0.99593127
000020 c9 f7 7e 3f 57 36 7e 3f 5d 26 7d 3f 60 7c 7d 3f
       0.9959684 0.99301666 0.9888666 0.99017906
000030 07 a7 7d 3f 69 76 7e 3f 86 4a 7d 3f 31 df 7c 3f
       0.9908299 0.9939943 0.9894184 0.98778063
000040 02 86 7d 3f a1 8a 7f 3f 69 a7 7d 3f af 52 7f 3f
       0.99032605 0.99820906 0.9908357 0.9973554
000050 04 ac 7d 3f 03 9d 7d 3f 70 d7 7c 3f 63 49 7e 3f
       0.990906 0.99067706 0.9876623 0.9933073
000060 b4 c2 7d 3f 9f 24 7d 3f 3e 31 7f 3f af 59 7e 3f
       0.9912522 0.98884004 0.9968451 0.99355596
000070 59 10 7d 3f 54 0c 7e 3f 07 b2 7e 3f e2 b5 7d 3f
       0.9885307 0.9923756 0.994904 0.99105656
000080 b3 92 7d 3f 4d 50 80 3f 59 30 7e 3f 3b 6a 7d 3f
       0.9905197 1.0024506 0.9929252 0.9899022
000090 74 e7 7c 3f 50 4a 80 3f ea af 7d 3f 7e 40 7e 3f
       0.9879067 1.0022678 0.9909655 0.9931716
0000a0 ae e5 7d 3f 89 2d 7d 3f ae 33 7d 3f 06 57 7d 3f
       0.9917859 0.98897606 0.9890698 0.9896091
0000b0 09 18 7e 3f ac b8 7e 3f 3d dc 7d 3f a0 f3 7c 3f
       0.99255425 0.99500537 0.9916418 0.9880924
0000c0 fb 1b 7e 3f 6c 54 7d 3f 6e 79 7d 3f a4 a0 7f 3f
       0.99261445 0.9895694 0.9901341 0.99854493
0000d0 a0 1d 7e 3f 9d 56 7c 3f 3f 24 7d 3f 7b 94 7c 3f
       0.99263954 0.9856966 0.9888343 0.98664063
0000e0 93 5e 7f 3f 38 46 7e 3f 1a eb 7d 3f 7e 0d 7e 3f
       0.99753684 0.99325895 0.9918686 0.9923934
0000f0 db e9 7d 3f 25 37 7c 3f ac 3b 7e 3f ba 37 7d 3f
       0.9918496 0.98521644 0.993098 0.98913157
000100 4d 1a 7e 3f 2a 1f 7d 3f dc 7a 7d 3f e4 5a 7d 3f
       0.9925888 0.9887568 0.99015594 0.98966813
000110 a5 61 7d 3f a1 83 7d 3f da 24 7d 3f d9 c9 7f 3f
       0.9897712 0.99028975 0.98884356 0.9991737
000120 e5 ca 7d 3f 1c 0b 80 3f a6 dd 7d 3f 4d ea 7d 3f
       0.9913772 1.000339 0.99166334 0.9918564
000130 b7 19 7b 3f 76 de 7f 3f 7a 56 7d 3f a8 d0 7c 3f
       0.9808611 0.99948823 0.9896008 0.98755884
000140 6d 0f 7d 3f be 22 7d 3f a8 63 7d 3f 04 be 7c 3f
       0.9885166 0.9888114 0.9898019 0.9872744
000150 67 37 7e 3f 45 54 7d 3f ce 7d 7e 3f 97 ab 7d 3f
       0.9930329 0.9895671 0.9941071 0.9908995
000160 a8 43 7e 3f 5d 75 7c 3f 94 4d 7c 3f b3 c3 7e 3f
       0.99321985 0.9861658 0.98555875 0.99517363
000170 4e bb 7d 3f eb 08 7e 3f 06 55 7d 3f ac 45 7c 3f
       0.9911393 0.9923236 0.9895786 0.9854381
000180 9c a0 7d 3f 40 2f 7e 3f ec d6 7d 3f ca 92 7c 3f
       0.99073195 0.9929085 0.9915607 0.9866148
000190 60 e9 7d 3f 15 d7 7e 3f da 47 7f 3f be 45 7d 3f
       0.99184227 0.9954694 0.9971901 0.98934543
0001a0 1e c9 7d 3f 14 f6 7c 3f 93 5b 7d 3f e6 24 7f 3f
       0.99135005 0.98812985 0.98967856 0.9966568
0001b0 2e f8 7c 3f b6 b4 7d 3f b5 b0 7d 3f 2f 91 7d 3f
       0.9881619 0.9910387 0.9909776 0.9904966
0001c0 97 eb 7d 3f 6e 90 7e 3f 9a 77 7d 3f fd 94 7d 3f
       0.99187607 0.9943913 0.9901062 0.99055463
0001d0 a1 6b 7d 3f 4b 84 7e 3f 02 1f 7d 3f a8 e1 7d 3f
       0.98992354 0.99420613 0.9887544 0.9917245
0001e0 ee 7b 7d 3f 14 05 7f 3f b0 c8 7f 3f 0b eb 7c 3f
       0.99017227 0.99617124 0.999156 0.9879615
0001f0 4a 8b 7d 3f 87 72 7e 3f 38 db 7e 3f 6f fd 7d 3f
       0.99040663 0.99393505 0.9955325 0.99214834
000200 77 eb 7e 3f 4b 99 7e 3f e2 b2 7d 3f fc 99 7d 3f
       0.9957804 0.99452657 0.9910108 0.99063087
000210 57 9e 7d 3f a4 d9 7d 3f 40 8e 7d 3f 5d 07 7f 3f
       0.9906973 0.9916022 0.9904518 0.9962061
000220 38 36 7d 3f da 6c 7d 3f ce 7f 7d 3f 57 39 7f 3f
       0.98910856 0.9899422 0.9902314 0.9969687
000230 32 77 7d 3f e6 4f 7d 3f f8 d7 7c 3f 3c 4a 7d 3f
       0.9901 0.9895004 0.9876704 0.989414
000240 03 65 7f 3f 67 34 7d 3f 89 c4 7d 3f 41 c4 7d 3f
       0.99763507 0.98908085 0.99128014 0.99127585
000250 08 95 7a 3f f5 0f 7d 3f db fe 7d 3f a4 01 7e 3f
       0.97883654 0.98852473 0.99217004 0.99221253
000260 e6 03 7c 3f 67 50 7d 3f b1 7f 7f 3f c1 fb 7d 3f
       0.9844345 0.9895081 0.99804217 0.9921227
000270 2b 2f 7e 3f 71 81 7d 3f 78 01 7f 3f 79 1e 7c 3f
       0.9929072 0.99025637 0.99611616 0.98484
000280 76 ae 7d 3f 64 3e 7e 3f da ad 7d 3f bb 1f 7d 3f
       0.9909433 0.9931395 0.990934 0.9887654
000290 d2 6b 7d 3f a2 84 7d 3f f7 46 7f 3f df 59 7d 3f
       0.98992646 0.99030507 0.9971766 0.9896526
0002a0 ae b8 7f 3f 9e 49 7d 3f 37 b1 7e 3f f0 e5 7c 3f
       0.99891174 0.98940456 0.9948916 0.98788357
0002b0 fd e2 7d 3f 45 77 7e 3f 91 de 7d 3f 8c 5e 7e 3f
       0.9917448 0.9940074 0.99167734 0.9936302
0002c0 4f f8 7e 3f d5 40 7e 3f b8 38 7d 3f 6e 92 7b 3f
       0.9959764 0.99317676 0.9891467 0.9827031
0002d0 a2 93 7e 3f c1 f1 7c 3f 2f 19 7e 3f 5e 41 7e 3f
       0.9944402 0.9880639 0.9925718 0.9931849
0002e0 6b a5 7c 3f 2e 86 7d 3f b6 8a 7d 3f fe d1 7d 3f
       0.9868991 0.99032867 0.9903978 0.9914855
0002f0 27 43 7c 3f da 91 7e 3f b4 91 7e 3f a7 88 7d 3f
       0.98539966 0.994413 0.99441075 0.9903664
000300 18 3c 7c 3f 53 fb 7d 3f 37 bf 7d 3f 6a f0 7f 3f
       0.98529196 0.99211615 0.99119896 0.9997622
000310 11 06 80 3f 16 00 7e 3f a7 10 7d 3f d1 da 7c 3f
       1.0001851 0.9921888 0.98853534 0.9877139
000320 2c f1 7d 3f c2 e6 7c 3f c1 ef 7e 3f be 18 7e 3f
       0.99196124 0.9878961 0.99584585 0.99256504
000330 5d c2 7c 3f 35 82 7c 3f 33 9d 7f 3f 8a e4 7e 3f
       0.98734075 0.9863618 0.9984924 0.9956747
000340 34 b6 7e 3f 77 ea 7b 3f 97 f4 7e 3f 62 83 7d 3f
       0.9949677 0.9840464 0.99591964 0.990286
000350 8c ed 7d 3f cd 3e 7c 3f 13 0b 7d 3f 79 ff 7c 3f
       0.9919059 0.98533326 0.9884502 0.9882732
000360 3b 68 7d 3f 2e fe 7d 3f a0 bb 7d 3f 14 c8 7d 3f
       0.9898717 0.9921597 0.9911442 0.9913342
000370 8a da 7e 3f bf 69 7d 3f 33 48 7d 3f 75 c8 7f 3f
       0.99552214 0.9898948 0.9893829 0.9991525
000380 79 d2 7d 3f 8e a6 7c 3f 36 57 7d 3f cc a1 7d 3f
       0.9914928 0.9869164 0.989612 0.9907501

output_layer.weight f4 [1, 228]
000000 48 5b e3 3b ac ec ce ba c3 b1 43 ba 73 6c 1d bd
       0.006938372 -0.0015787086 -0.0007465148 -0.038433503
000010 08 65 93 39 e2 53 3a bd dd 11 c4 ba 7c a1 a9 3b
       0.000281133 -0.045490153 -0.0014958937 0.005176721
000020 be cd da 3a 18 a1 14 3c 76 c5 a2 3c 03 2a 13 ba
       0.0016693396 0.009071611 0.019869547 -0.0005613865
000030 e3 0c ae 3c c8 71 b3 3b 16 86 1b 3c 00 39 a1 3c
       0.02124638 0.0054762103 0.009492418 0.0196805
000040 6e 0c 54 bc 88 82 16 3a 73 85 23 3c d9 0b a3 ba
       -0.012942417 0.00057414966 0.009980547 -0.0012439444
000050 7b 45 54 bc f3 1f 20 bd 1c d6 04 bd 72 8c a0 39
       -0.012956019 -0.03909297 -0.032430753 0.00030622218
000060 19 05 3f bd fa c5 ae 3b 0f dc 20 bb 8c a8 2d bc
       -0.04663572 0.0053336592 -0.0024545228 -0.010599267
000070 90 b9 6e 3c cd 57 05 bd cb fe ce bc cb 24 22 3c
       0.014570609 -0.032554436 -0.02526798 0.009896467
000080 62 f9 8a 3c ed 28 6a 3b 87 d8 36 bd 71 6e 55 3c
       0.016964618 0.003572996 -0.04464009 0.01302682
000090 b0 bb a8 37 62 7a 1d 3b c9 e4 92 bc b0 36 c5 3c
       2.011456e-05 0.0024029245 -0.017931359 0.024073929
0000a0 4b b0 7e 3c ae c1 27 bc 0a 18 e5 bc 99 51 88 3b
       0.015544961 -0.010239048 -0.027965564 0.004160118
0000b0 d2 df a9 3c 3a 20 06 bb 0f 56 ee bc 1b 74 6a 3c
       0.020736609 -0.0020465986 -0.02909377 0.014309908
0000c0 d1 59 04 bc 75 9f ac bc 89 51 a9 bb 6d a1 3c bb
       -0.0080780545 -0.021072129 -0.0051671905 -0.002878274
0000d0 09 d7 cb 3c ed 9c 03 bd 1a 2f 20 3d 40 08 de 3c
       0.02488281 -0.032132078 0.03910742 0.027103543
0000e0 d6 9d 9e 3a 50 31 e9 bc 88 c6 39 39 bd 65 97 bb
       0.0012101482 -0.028465897 0.00017716934 -0.0046202824
0000f0 0e 7f 6a ba e4 f3 9d ba 94 ef 76 ba 56 5e 87 3b
       -0.0008945324 -0.0012050834 -0.0009419855 0.0041311188
000100 82 51 af 3b 9f e3 d6 bc 8b 57 84 bc a4 4d 88 3b
       0.0053502927 -0.026231585 -0.016155025 0.004159646
000110 9f e0 ae 3b 27 8f 2b 3c cf 89 00 bd 7f ba 42 3b
       0.0053368355 0.010471142 -0.031381425 0.002971321
000120 c2 47 26 3c ad fa 23 3a 99 25 a5 3b 24 ed 82 bb
       0.010148944 0.000625531 0.0050398824 -0.0039955545
000130 7c a2 90 bc ee 02 11 3b 66 97 9e 3c 6e 76 11 3d
       -0.017655604 0.002212699 0.019359302 0.035513334
000140 b7 60 c1 3c 06 c3 52 3b 78 27 8e bc 86 49 18 bd
       0.023605688 0.00321597 -0.017352805 -0.037179492
000150 eb 6a b7 3b 42 7d 6e bc 38 77 5f 3c f0 a7 6b bc
       0.0055974624 -0.014556231 0.013639264 -0.014383301
000160 c4 6e 07 3b f4 dc bb bc c5 c7 b5 3c fe ef b0 bb
       0.0020665387 -0.022932507 0.022189984 -0.005399703
000170 9a 0e 4d bd b6 ab 94 bc 22 45 1f ba c2 41 8c bd
       -0.050062753 -0.018148284 -0.000607567 -0.0684848
000180 5e 56 c6 bb 2e 73 8b bc c2 ff 06 3c af f3 0d bd
       -0.0060527762 -0.017022695 0.008239688 -0.034656223
000190 9a 23 8a 3b 48 7d fd b9 84 b0 ed bb e1 cd 84 bc
       0.00421567 -0.00048349262 -0.0072537083 -0.016211452
0001a0 5d 2d 33 3c c3 1b eb bc f5 39 8e bb 13 de da 39
       0.010936108 -0.028699761 -0.004340405 0.00041745658
0001b0 07 7d d1 ba b3 ee 9b bb 4d 56 ba 3b e7 b1 9d 3b
       -0.0015982696 -0.00475868 0.0056865574 0.0048124674
0001c0 50 96 1b bd 7c 00 fa 3c c5 13 d3 bb ec 3e e7 bc
       -0.037985146 0.03051781 -0.0064415657 -0.028228246
0001d0 34 a7 a5 3a e0 95 84 3a 21 7a 9d bc 90 f8 58 3c
       0.0012638331 0.0010115467 -0.019223275 0.013242856
0001e0 ff a1 11 3b c3 00 0d 3d 84 28 01 3b 9f c5 92 3c
       0.0022221801 0.034424555 0.0019707987 0.017916499
0001f0 4c 66 11 39 48 64 c8 b9 27 d1 8b 3b d1 05 25 3c
       0.00013866386 -0.00038221688 0.0042668763 0.0100721875
000200 e6 be 1e bb d8 dd 22 3c 57 21 21 bb c6 b9 0c bc
       -0.002422267 0.009940587 -0.0024586522 -0.008589214
000210 49 3c 9a 3b 23 d3 c3 3c 63 6e db 3b 81 6f 1a 3b
       0.0047068936 0.023904389 0.0066965087 0.0023564997
000220 b9 a9 df 3c 8f 3e 93 3b c3 66 61 3c b2 13 85 3b
       0.02730261 0.0044935415 0.01375741 0.0040611858
000230 43 e3 a8 bb f3 49 03 bc 88 5a fd bc 40 c3 8d 3b
       -0.005154045 -0.008013236 -0.030926958 0.004326254
000240 5b e0 d6 b7 90 09 ff bc f8 21 c9 bc 31 3d b2 bc
       -2.5615262e-05 -0.03113249 -0.02455233 -0.021757694
000250 4e 57 ba 3a 90 19 78 3c 8a f0 4d 3c 1f 9d 5b bc
       0.0014216693 0.015142813 0.012569556 -0.01340416
000260 3c 23 e3 3c ba 8e f8 b9 3b 95 39 3b 1b e4 bf 3c
       0.027726762 -0.00047408586 0.0028317708 0.023424199
000270 01 03 08 bd 0c 6b e8 bc c4 b5 8a 3b 12 c1 2d bc
       -0.03320599 -0.028371356 0.004233094 -0.010605114
000280 0c 3a 0a bd d6 f1 e0 3b 04 02 2c bb 64 92 38 ba
       -0.033746764 0.0068647666 -0.0026246319 -0.0007040857
000290 08 53 c0 bc ab 06 2f bc d6 19 93 bc af 30 77 3c
       -0.023477092 -0.010682742 -0.017956655 0.015087291
0002a0 42 9e d5 39 78 b3 4e 3c d7 06 33 bd a7 ff d5 bc
       0.00040744437 0.012616031 -0.043707695 -0.026122881
0002b0 db 47 b0 3b 80 b2 07 3c 8b 98 b1 3a f3 d9 b9 3c
       0.0053796596 0.008282304 0.001354949 0.022686934
0002c0 cd 85 9f bc d0 89 9f 3c 65 f4 c2 3c 42 83 aa bc
       -0.01947298 0.019474894 0.023798177 -0.020814542
0002d0 aa cc b8 3c c5 59 57 bc 70 95 35 3d 7d 0e 72 3b
       0.022558529 -0.013143961 0.044331968 0.0036934905
0002e0 dc 76 ba 3a aa 54 38 3d fe f3 b8 bc e2 2d bc 3c
       0.0014226097 0.045002617 -0.022577282 0.022971097
0002f0 02 30 15 bd 15 6d ce 3b 6e cf ab 3c fc c1 38 3c
       -0.036422737 0.0062996247 0.020972934 0.011276718
000300 44 d9 11 3d 9e 55 d9 3b 67 2e b4 3c 41 f8 85 3a
       0.03560759 0.006632521 0.021994783 0.001022108
000310 34 4e cb 3a 62 03 8d bc 06 d8 da 39 f5 64 89 3b
       0.0015510977 -0.017213527 0.0004174115 0.004192943
000320 6f d6 e7 3a ba 76 99 bc 46 dc 1b bb 34 76 da bc
       0.0017687808 -0.018733371 -0.0023782416 -0.026667692
000330 eb 34 2c 3b 85 4e 08 3d 74 32 33 ba c8 f8 a0 3b
       0.0026276659 0.033278007 -0.0006835826 0.0049124695
000340 c9 d0 bd 3c 1f 18 7a bd c2 f7 09 3b 9c bc be bb
       0.023170846 -0.06105816 0.0021052216 -0.005820824
000350 ba 08 be 3b c2 59 ca 3b d5 c1 d4 3c be fa b4 ba
       0.00579938 0.0061752507 0.025971333 -0.0013807637
000360 c1 62 16 3d 0f 10 42 3b 0d 1b 9b 3c fc 2e 2a bd
       0.036715273 0.0029611622 0.018933797 -0.041548714
000370 b8 06 a9 ba cb e3 61 3b e2 4e 41 bb d8 9d 71 39
       -0.0012895679 0.003446805 -0.002949648 0.00023042352
000380 07 a1 a2 3b 93 cc 68 3b 13 b2 8b 3c 82 a3 b3 3c
       0.0049630436 0.0035522326 0.017052686 0.021928553

uncertainty_layer.weight f4 [1, 228]
000000 cd 39 a3 bd 7f d6 de 3c e5 f4 44 3d b6 6c d1 3c
       -0.07970009 0.02720189 0.048085112 0.025564533
000010 45 da 63 bd dc 03 78 bc 91 9b 1b bd 9a 73 1c bd
       -0.05562808 -0.015137639 -0.037990157 -0.038196184
000020 9b 93 5c bd 98 40 30 bd 26 da 13 3d 95 82 48 bd
       -0.053851705 -0.04303035 0.036096714 -0.048952658
000030 b7 e8 fd 3c e8 b5 7d bb 7c 16 4a 3d 60 71 2a 3d
       0.030994756 -0.003871316 0.04933785 0.04161203
000040 28 85 57 3d 01 3c 0f bd 0f bf f7 bc 1a ad 50 bd
       0.052617222 -0.034969334 -0.030242471 -0.050946333
000050 ef a5 05 bd e9 bc 50 bc 0a e4 0f bc 29 a6 0e bd
       -0.03262895 -0.012740352 -0.008782396 -0.03482643
000060 7c 6c e8 3a 57 c8 04 3d fd df 34 bc b6 1d 78 3c
       0.0017732526 0.03241762 -0.011039731 0.015143802
000070 55 43 7d 3c 82 d2 7d 3c b5 d0 c1 3b ec f1 44 bd
       0.015457948 0.0154920835 0.0059147724 -0.048082277
000080 76 b2 41 3d a8 9f 40 bd d9 24 56 bc cf 51 80 3c
       0.047289334 -0.04702726 -0.013070309 0.01566401
000090 12 d9 1f bd 1b 81 04 bd 03 ca 0d 3d 70 ef 7f 3c
       -0.039025374 -0.032349687 0.03461648 0.015621051
0000a0 e7 15 08 bc 1d ac 44 3d 6c c8 19 bb 05 41 94 bd
       -0.008306003 0.048015703 -0.0023465408 -0.07238964
0000b0 1e 28 73 3d 48 22 2e bd 1d 0d 59 3c 70 fe 3e 3d
       0.05936443 -0.042513162 0.013247755 0.04662937
0000c0 f2 9c a3 3c aa d0 ca ba 30 fa 47 3d 3c 88 25 bd
       0.019972298 -0.0015473564 0.04882258 -0.040413126
0000d0 55 32 8d 3d 66 6d b9 3c 69 d1 0a 3d ea 86 d3 3b
       0.06894366 0.022635173 0.033891115 0.006455292
0000e0 bf 0e 33 bd 6e e3 5d bc 38 80 8e bd 56 18 22 3d
       -0.043715235 -0.013542993 -0.069580495 0.03957399
0000f0 ca ab 58 3d e0 3a 63 bd a2 62 36 3d 06 c2 23 ba
       0.052898206 -0.05547607 0.044527657 -0.0006246868
000100 7c d3 a9 bd f3 7e 85 3c b1 15 23 3c be 74 28 bd
       -0.082922906 0.016295886 0.009953902 -0.04112696
000110 62 cb 41 3d 63 f0 b7 3c 11 c1 d7 bc 29 3b 1d bd
       0.0473131 0.022453493 -0.026337178 -0.038386498
000120 78 9a 78 bc 98 76 fe bc 90 b2 4b bd 6d 4e 2a bd
       -0.015173547 -0.03106241 -0.049730837 -0.0415787
000130 6c 49 cd bc 35 f0 84 bd be ea 03 3c e1 64 35 3b
       -0.025059424 -0.06491128 0.008051572 0.0027678537
000140 d4 a1 3b bc 94 7c 84 bd 9a 03 08 3b 87 e8 09 bd
       -0.011452157 -0.06469074 0.00207541 -0.03366902
000150 e2 0d 92 bd 34 6f ba 3c a4 ed 36 3d 2d 07 08 3d
       -0.07131554 0.022758104 0.044660226 0.03320997
000160 5c 4a 91 bd d2 cd 47 bc 3d da 9d 3b 61 00 4f bd
       -0.07094261 -0.0121950675 0.004817276 -0.05053747
000170 14 61 e6 3c c8 ad 5e 3d 9f 2e 06 3d df 71 f2 3b
       0.028122462 0.05436495 0.032759305 0.0073988284
000180 13 b6 0a 3d dd 8b 58 3d b0 a7 50 3d 67 ea 87 bd
       0.033865046 0.05286776 0.05094117 -0.066365056
000190 32 31 8d bd e4 2b 6d bd 11 53 5a bc 3e 4b ff 3c
       -0.06894149 -0.057903185 -0.013325469 0.031163808
0001a0 d2 4c c3 bc b4 7a 33 3d 55 34 07 bd 32 c6 fa bc
       -0.023840342 0.04381819 -0.033008892 -0.030612085
0001b0 9a 32 62 bd bf 57 16 3d 41 9f 04 bd b6 5d 4b 3d
       -0.05522404 0.036704775 -0.03237844 0.049649917
0001c0 99 43 99 3c fd a6 48 3d 6f 43 da 3c 50 77 8f 3c
       0.01870899 0.048987377 0.026643483 0.017512947
0001d0 a3 c4 6b bd b8 16 7e bd f9 ee 08 bd 80 ce ad 38
       -0.057560574 -0.062033385 -0.033431027 8.2877465e-05
0001e0 2d 8f 1d bd 2f 5d 77 3d 97 3f fa bc e2 f9 cf 3c
       -0.03846662 0.0603916 -0.0305479 0.025387708
0001f0 2d 7b 1b 3c 6b 91 78 bd 2b 25 88 3d 26 83 57 3d
       0.009489817 -0.060685556 0.06647714 0.052615307
000200 f9 9b 5a bd f6 3b af bc 09 7f 8d bd 57 9a 42 3b
       -0.053371403 -0.021390896 -0.06908996 0.0029694044
000210 40 a0 98 bd 48 17 27 bd b0 68 0c bd 36 bf 4a bd
       -0.0745244 -0.040793687 -0.034279525 -0.04949876
000220 cf 3a 5a 3c d6 48 80 bd bd fc 51 3d 3a d2 5b bd
       0.013319685 -0.06263892 0.05126642 -0.053667285
000230 d9 91 93 3c 43 f2 30 bc a9 85 00 bd f3 37 4e bd
       0.018013882 -0.010799947 -0.03137747 -0.050346326
000240 39 ae 15 bd 4a 2a 31 3d d4 b7 a5 bc 86 b5 2a 3c
       -0.036543105 0.04325322 -0.020229258 0.010419255
000250 98 de 8d 38 f4 20 2d 3d 88 b3 7b 3d 39 2d 91 3c
       6.764865e-05 0.042267755 0.06145051 0.01772176
000260 e8 67 81 3b 6f fb 76 bd 32 c7 19 bd 42 dd 15 3d
       0.003949154 -0.06029838 -0.037543483 0.03658796
000270 f4 6d 09 3c 38 cf 7e bb c8 28 9e bd 51 b3 75 bd
       0.008388031 -0.0038880836 -0.07722622 -0.059985463
000280 a9 d7 14 3d 35 6c 54 3d 39 16 27 bd 30 4e 7f bd
       0.036338482 0.051861007 -0.040792678 -0.062330425
000290 20 9e 37 3d 53 6e 15 3d 11 a3 3f 3d 2a 1e 76 38
       0.044828534 0.036482166 0.04678637 5.8679063e-05
0002a0 67 c1 b4 bc 9c 96 d0 3c 6a cd a1 3c a9 80 34 bc
       -0.022064878 0.025462441 0.01975127 -0.011017003
0002b0 6e fa c8 3c 12 59 b8 bc fc d4 83 bd 3b b0 f4 3c
       0.024533477 -0.02250341 -0.06437108 0.02986919
0002c0 fc 15 b2 bb 9d 5d a3 3b 11 7a dc 3c b5 dd 4d bd
       -0.0054347496 0.004985525 0.026913675 -0.050260264
0002d0 27 38 98 3a 53 23 ba 3c a5 10 3c 3d 76 5d 3a bd
       0.0011613414 0.022721922 0.04591431 -0.045499288
0002e0 7c bc 01 bd f1 45 82 3c 26 08 4e 3d 28 23 02 bd
       -0.031673893 0.015902491 0.05030074 -0.03177181
0002f0 e6 b1 d2 bb e7 4f 83 3d 5a b1 4c bb 93 3f 16 bb
       -0.0064298986 0.064117245 -0.003123364 -0.0022926077
000300 a9 20 4f 3d b8 0f 4e 3b e2 91 de 3c 03 d2 16 bd
       0.050568257 0.0031442475 0.027169172 -0.036821377
000310 1e 9d 17 bd 7d 33 6d bc 96 37 82 bd f6 e8 8a bd
       -0.037015073 -0.014477608 -0.063582584 -0.06782715
000320 bb 33 92 bd 2c b8 f0 bc 1a 91 14 bd 19 9b b0 ba
       -0.07138773 -0.029384695 -0.036271192 -0.0013473957
000330 2b 12 42 3d a5 03 2d 3d e1 de 5c bd 9b bd 78 bd
       0.047380608 0.042239804 -0.05392349 -0.060727697
000340 a1 80 3e bb 10 28 da 3c 45 09 57 bd 30 17 be 3c
       -0.0029068368 0.026630431 -0.052499074 0.023204416
000350 da bf 32 bc a7 03 7c 3c fa 24 22 3d dc 1d 58 bd
       -0.010909999 0.01538173 0.039586045 -0.05276285
000360 fc ea e6 3c 5f cc 3c 3d e1 cf 3a 3d 12 f5 fb bb
       0.028188221 0.04609334 0.045608405 -0.007689127
000370 48 3a 17 bd ca 05 93 bd cb ea 1c 3d bb 3d b4 bc
       -0.036920816 -0.071788386 0.038309854 -0.022002092
000380 ec db 88 3b 0b 44 36 3d cd 8b 54 3c c6 d8 a2 3c
       0.0041766074 0.044498485 0.012972784 0.019878756
