BD1/bd1_models/bd1_bindingdb_curated/NN_computed_descriptors_scaffold_regression/4c963814-3b1f-4a2f-b18b-b8eddea68fc7/best_model/checkpoint1.pt (torch, 679165 bytes, 24 tensors)

layers.0.weight f4 [237, 200]
0	0x3cb8e963	0.022572225
1	0x3c215b40	0.009848416
2	0x3b34ec18	0.0027606543
3	0xbd804e59	-0.06264944
4	0xbd876bb4	-0.066123396
5	0xb9e4e932	-0.00043661293
6	0x39f9b33d	0.00047626524
7	0x3ad23e3c	0.0016040276
8	0xbc6b8563	-0.014375064
9	0x803ade76	-5.406263e-39
10	0x3d7a3b3e	0.061091654
11	0xbc7b5cba	-0.015341932
12	0xbc55b06a	-0.013042549
13	0x3cab956d	0.020945275
14	0xbd860d86	-0.06545548
15	0x3ceeeebc	0.029166572
16	0x3da53221	0.08066202
17	0x3cc23a22	0.02370936
18	0x3ca7821f	0.020447789
19	0xbccaa7e6	-0.024738263
20	0x3c3864fa	0.011254543
21	0x3ceefbcd	0.029172802
22	0xbbbba6fb	-0.0057266927
23	0xbd1cf5e7	-0.03832045
24	0x39dea97d	0.00042469418
25	0xbd26474e	-0.040595345
26	0x3b4fea98	0.0031725522
27	0xbd83cb65	-0.06435279
28	0x3c62cfd2	0.013843494
29	0xbd92b179	-0.071627565
30	0x3c5477bd	0.012968001
31	0x3d277d89	0.040891204
32	0x3c61728c	0.01376022
33	0xbc883a9c	-0.01662951
34	0xbd93f89b	-0.07225152
35	0xbcf54103	-0.029938227
36	0xbd12f6ed	-0.035880018
37	0x3c64a5af	0.013955518
38	0x3d226ba9	0.039653454
39	0x3c574075	0.013137926
40	0xbd293545	-0.041310567
41	0x3d6896fd	0.05678462
42	0x3d1420d5	0.036164124
43	0x3941bf9a	0.00018477291
44	0xbcaffa4b	-0.021481654
45	0xbda4db8d	-0.080496885
46	0x3d7a6ad5	0.06113704
47	0xbba8c560	-0.005150482
48	0x3d176782	0.036963947
49	0xbd471b87	-0.048610236
50	0x3d36f8a9	0.044670735
51	0xbc33504a	-0.010944435
52	0x3d556dcf	0.052106675
53	0x3d216872	0.039406247
54	0xbc221b30	-0.009894177
55	0xbd764909	-0.060128246
56	0x3cf3a68e	0.029742505
57	0x3d4bbf5d	0.049743045
58	0x3cb7bae7	0.02242799
59	0x0515a9b6	7.037117e-36
60	0xbde35bfb	-0.11101528
61	0x3cc43c54	0.023954548
62	0xbb868828	-0.0041055866
63	0xbd01271f	-0.03153145
64	0xbc81884e	-0.015812065
65	0xbcb45c2c	-0.022016607
66	0xbd5440b0	-0.051819503
67	0x3b3c722d	0.0028754578
68	0xbbe7626f	-0.0070612947
69	0xbbe2d8bc	-0.0069228094
70	0x3c1811dd	0.009281603
71	0xbc2786db	-0.010225023
72	0x00378e6b	5.102042e-39
73	0xbc354c21	-0.011065514
74	0x3ae082f0	0.0017128866
75	0xbb05c641	-0.0020412358
76	0x3ccbdb1b	0.024884751
77	0xbc517149	-0.012783357
78	0x3cae93ed	0.02131077
79	0x3d571541	0.052510504
80	0x3d6e2b8b	0.058146995
81	0xbc0f7275	-0.008755316
82	0x004e23f5	7.176068e-39
83	0xbd905652	-0.07047714
84	0x3d4ad47f	0.04951906
85	0x3ca4b0dc	0.020103864
86	0x3c031d85	0.0080026435
87	0x3b132cef	0.0022457202
88	0x3d14485e	0.036201827
89	0x3cf17b6c	0.029477797
90	0x3d1202cb	0.035647195
91	0xbb27ba0b	-0.0025593068
92	0x3db61793	0.08891215
93	0xbd89c5e1	-0.067271955
94	0xbd203164	-0.039109603
95	0xbc978963	-0.018498128
96	0xbc6cb193	-0.014446634
97	0x3caf78f2	0.021419976
98	0xbd1ea995	-0.038735945
99	0xbd3d7846	-0.04625728
100	0xbd22bce7	-0.039730933
101	0xbd6b4a8f	-0.05744415
102	0x3a2d3f17	0.00066088274
103	0x3ba45694	0.0050152037
104	0x3d1921d7	0.037385788
105	0xbca086af	-0.019595472
106	0xbc2cb04d	-0.01054008
107	0xbc8d6d31	-0.01726398
108	0x3da2050f	0.07911121
109	0xbd438479	-0.047733758
110	0x3c15cdcd	0.009143305
111	0xbd279851	-0.040916745
112	0xbd59316b	-0.053025644
113	0xbd151676	-0.036398374
114	0xbd46d916	-0.048546873
115	0xbc25a63d	-0.010110435
116	0xbb7951d1	-0.003804315
117	0x3c18b6b3	0.009320903
118	0xbcd627cb	-0.026142022
119	0xbd507e62	-0.050901778
120	0xbd4940a1	-0.0491339
121	0xbb85415d	-0.00406663
122	0x3d084952	0.03327305
123	0xbce134e3	-0.027491039
124	0xbc878a8c	-0.016545556
125	0xbccf19e9	-0.02528091
126	0x3ce331c5	0.027733693
127	0x00394ea5	5.262836e-39
128	0xbc0ace8f	-0.008472099
129	0x3bc70e9b	0.006074739
130	0xbd10f641	-0.035391096
131	0x3be7b197	0.007070731
132	0x3d4484ab	0.047978085
133	0x3db4e5ad	0.0883287
134	0x3cafcb83	0.021459347
135	0xbce76ab8	-0.02824913
136	0xbc6360b3	-0.013878035
137	0x8016369d	-2.039972e-39
138	0x0012c920	1.725189e-39
139	0x3d27d780	0.040977
140	0x3d0d12f4	0.034441903
141	0xbc86d0f5	-0.01645706
142	0xbcf057ba	-0.029338706
143	0x3c94736c	0.018121444
144	0x3c2f0ef8	0.010684721
145	0xbc60cbce	-0.013720466
146	0x00495a59	6.736402e-39
147	0x3ad466d2	0.0016204959
148	0x800012b2	-6.707e-42
149	0x3d2621cc	0.040559575
150	0x00aa6a60	1.5650195e-38
151	0x3d8a61bf	0.06756925
152	0x80271ca7	-3.591863e-39
153	0x000666ba	5.87864e-40
154	0x8069549e	-9.673082e-39
155	0x3d053819	0.032524202
156	0x3c36b643	0.011151853
157	0x817b2576	-4.6128296e-38
158	0x80160d6a	-2.025193e-39
159	0x3d4498e7	0.04799738
160	0x0058714f	8.122171e-39
161	0x3cb63194	0.022240438
162	0xbcae38db	-0.021267345
163	0x3cd5482b	0.026035389
164	0x8192bc31	-5.390197e-38
165	0x00531f2d	7.63353e-39
166	0x3d8c781c	0.068588465
167	0x3d0f62de	0.035006396
168	0x805d903a	-8.59244e-39
169	0x3d05f5fe	0.0327053
170	0x3c8de842	0.017322663
171	0x3cb8d61d	0.022563035
172	0x3d93f2a2	0.07224013
173	0x003fc925	5.857793e-39
174	0x805db39f	-8.605137e-39
175	0x000fab46	1.438974e-39
176	0x80721bf4	-1.0479274e-38
177	0x3d20a325	0.039218087
178	0x004664f4	6.4647e-39
179	0xbc94d075	-0.018165806
180	0x3a0e7b3a	0.00054352323
181	0x3b132c5c	0.002245686
182	0x0d352ad4	5.5826484e-31
183	0x803444e7	-4.800163e-39
184	0xbda2cc0e	-0.079490766
185	0xbdb2c8f1	-0.08729733
186	0xbcb2c32f	-0.021821586
187	0x8027ea30	-3.665595e-39
188	0xbcaa98dd	-0.020824844
189	0x8078e058	-1.1100739e-38
190	0xbd80f354	-0.06296411
191	0x3cc0f31c	0.023553424
192	0x3d1f1157	0.038834896
193	0xbc72daf9	-0.014822715
194	0x3c7b01e2	0.015320273
195	0xbd481f50	-0.048857987
196	0x816cd88a	-4.3501713e-38
197	0x3cacbb0d	0.021085287
198	0x80374654	-5.076181e-39
199	0xbd276026	-0.04086318
200	0x3bf56d89	0.0074898642
201	0xbd800b09	-0.06252105
202	0xbc25c7e1	-0.010118456
203	0xbaf99d1a	-0.0019044012
204	0x3d21e7d9	0.039527748
205	0x3cd9acd6	0.026571672
206	0x3c4ba9b2	0.012430595
207	0x3c7d63e9	0.015465715
208	0xbbe053bc	-0.0068459194
209	0x8079fc1d	-1.1202536e-38
210	0x3d2d6711	0.04233462
211	0xbc46e4dc	-0.012139525
212	0x3c9281b3	0.017884111
213	0x3cc44814	0.02396015
214	0x3d24904d	0.04017668
215	0x3d89c934	0.067278296
216	0x3d158b68	0.0365099
217	0x3dd1e64d	0.102490045
218	0xbccee64f	-0.025256304
219	0x3c4de072	0.012565719
220	0xbc1a9cf2	-0.009436833
221	0x3a5ccd0f	0.000842289
222	0x3cbe7660	0.023249805
223	0xbb920e15	-0.004457245
224	0x3caa3c6d	0.020780766
225	0xbc94d05c	-0.01816576
226	0xbc35574c	-0.0110681765
227	0xbc8e9df3	-0.0174093
228	0xbd398e4e	-0.045301728
229	0x3a2419d6	0.00062599534
230	0xbd00e6aa	-0.03146998
231	0xbd3ac119	-0.04559431
232	0x3c8909ca	0.0167283
233	0xbcb9ae19	-0.022666024
234	0x3c18733c	0.009304818
235	0x3cde710f	0.02715352
236	0xbad92bb7	-0.0016568814
237	0xbc2f1d57	-0.0106881475
238	0x3d59c88b	0.05316977
239	0x3d4f1424	0.050556317
240	0xbcb1ff45	-0.021728167
241	0x3db9de1f	0.09075569
242	0xbd5604a6	-0.052250527
243	0xbd8f1df8	-0.06988138
244	0x3cae5c43	0.021284228
245	0xbde23dc0	-0.11046934
246	0x3da2452f	0.07923352
247	0x3d70f53b	0.05882762
248	0xbd2eedbc	-0.04270719
249	0xbce2ab19	-0.027669476
250	0x3d0ea3ce	0.034824185
251	0xbc952579	-0.018206345
252	0xbc734075	-0.014846911
253	0xbdb91b93	-0.090384625
254	0xbc0bda0f	-0.008535876
255	0xbd2b17a4	-0.041770592

layers.0.bias f4 [237]
0	0x3f7d974f	0.99059004
1	0x3f7d5edc	0.9897287
2	0x3f7d86f6	0.9903406
3	0x3f786dc0	0.97042465
4	0x3f7f7ebc	0.99802756
5	0x3f807994	1.0037103
6	0x3f806a99	1.0032531
7	0x3f7bc9fe	0.9835509
8	0x3f81db79	1.0145103
9	0x3f7c07a9	0.9844919
10	0x3f7f2d7e	0.9967879
11	0x3f8098f7	1.0046681
12	0x3f8293be	1.0201337
13	0x3f7a76e5	0.9783767
14	0x3f81afde	1.0131795
15	0x3f7e0872	0.99231637
16	0x3f8033c1	1.0015794
17	0x3f764805	0.96203643
18	0x3f7ebfcf	0.99511427
19	0x3f78cd2b	0.9718806
20	0x3f7d3fc1	0.98925406
21	0x3f763fde	0.96191204
22	0x3f7c0451	0.98444086
23	0x3f7c91a9	0.9865976
24	0x3f806cd3	1.003321
25	0x3f798cb2	0.9748031
26	0x3f74e317	0.9565901
27	0x3f7427ec	0.95373416
28	0x3f7ec838	0.9952426
29	0x3f75f64a	0.9607893
30	0x3f7c3728	0.9852166
31	0x3f806358	1.0030317
32	0x3f78d20f	0.97195524
33	0x3f83ee81	1.0307161
34	0x3f7f8f2d	0.99827844
35	0x3f80acac	1.0052695
36	0x3f847dea	1.0350926
37	0x3f79eed6	0.9763006
38	0x3f7cf4b0	0.98810863
39	0x3f808f72	1.0043776
40	0x3f764ee5	0.96214134
41	0x3f7cf5c1	0.9881249
42	0x3f7b005d	0.9804743
43	0x3f800700	1.0002136
44	0x3f7c6454	0.9859059
45	0x3f7e5021	0.99341017
46	0x3f804dc7	1.0023736
47	0x3f805495	1.0025812
48	0x3f75d7e1	0.9603253
49	0x3f79217b	0.9731671
50	0x3f7835d2	0.96957123
51	0x3f75c7ce	0.96008
52	0x3f7d195c	0.9886682
53	0x3f7fa275	0.99857265
54	0x3f7e6870	0.9937811
55	0x3f7c0183	0.98439807
56	0x3f7c1bec	0.98480105
57	0x3f7dfeb2	0.9921676
58	0x3f7e7040	0.9939003
59	0x3f766c04	0.9625857
60	0x3f75cd39	0.9601627
61	0x3f7e44b9	0.9932361
62	0x3f81556f	1.0104197
63	0x3f767879	0.96277577
64	0x3f78362b	0.96957654
65	0x3f7c4b51	0.98552424
66	0x3f7b1500	0.9807892
67	0x3f74d5b5	0.9563859
68	0x3f7a25d2	0.9771396
69	0x3f822786	1.0168312
70	0x3f78f889	0.97254235
71	0x3f74b2ba	0.95585215
72	0x3f7c134f	0.9846696
73	0x3f824126	1.0176132
74	0x3f80281d	1.0012242
75	0x3f79ab70	0.9752722
76	0x3f762d2f	0.96162695
77	0x3f790f9f	0.9728946
78	0x3f749021	0.95532423
79	0x3f7b2cc7	0.981152
80	0x3f7e0fc5	0.9924281
81	0x3f79f3c5	0.9763759
82	0x3f7a45af	0.9776258
83	0x3f7dc415	0.9912732
84	0x3f75bc38	0.95990324
85	0x3f7d16c5	0.9886287
86	0x3f773ce5	0.9657729
87	0x3f8117c9	1.0085384
88	0x3f775aed	0.96623117
89	0x3f7bc9ea	0.9835497
90	0x3f7d1ea1	0.9887486
91	0x3f814d92	1.0101798
92	0x3f8048cb	1.0022215
93	0x3f78f61f	0.9725055
94	0x3f7750a5	0.9660743
95	0x3f8210bf	1.016136
96	0x3f80bcdf	1.0057639
97	0x3f81d8fb	1.0144342
98	0x3f76d183	0.9641344
99	0x3f7cbc1a	0.9872452
100	0x3f7aa2b7	0.97904533
101	0x3f7e0699	0.9922882
102	0x3f813d9f	1.009693
103	0x3f802b4f	1.0013217
104	0x3f7e178e	0.9925469
105	0x3f725cf5	0.9467309
106	0x3f7b4436	0.98150957
107	0x3f7d38ba	0.9891468
108	0x3f7ce171	0.98781496
109	0x3f75fe68	0.9609132
110	0x3f80d0c6	1.0063713
111	0x3f794f42	0.9738656
112	0x3f77e0a8	0.96827173
113	0x3f7886dd	0.97080785
114	0x3f78b766	0.97154844
115	0x3f7ff155	0.9997762
116	0x3f7e5fe5	0.99365073
117	0x3f74c341	0.95610434
118	0x3f7b67ad	0.9820507
119	0x3f7593e3	0.9592878
120	0x3f80425f	1.0020255
121	0x3f85bf01	1.0448915
122	0x3f7e5f6a	0.9936434
123	0x3f80ac80	1.0052643
124	0x3f7e2302	0.9927217
125	0x3f7d7678	0.99008894
126	0x3f7d1627	0.98861927
127	0x3f785afd	0.9701384
128	0x3f7c64cd	0.9859131
129	0x3f805ee2	1.0028956
130	0x3f794be4	0.97381425
131	0x3f7e9f9e	0.99462306
132	0x3f7d0572	0.98836434
133	0x3f7d8ac4	0.99039865
134	0x3f746884	0.9547198
135	0x3f764c17	0.96209854
136	0x3f7945b3	0.9737198
137	0x3f7e50b2	0.9934188
138	0x3f792a08	0.9732976
139	0x3f7f3a62	0.9969846
140	0x3f7f356d	0.99690896
141	0x3f810160	1.0078545
142	0x3f74bbb9	0.9559894
143	0x3f780aad	0.9689129
144	0x3f7e51a1	0.99343306
145	0x3f79992b	0.9749934
146	0x3f706091	0.9389735
147	0x3f7d0192	0.9883052
148	0x3f7cf290	0.9880762
149	0x3f814da9	1.0101825
150	0x3f7edb26	0.99553144
151	0x3f7919af	0.97304815
152	0x3f7f9e91	0.9985133
153	0x3f7ed1c5	0.9953883
154	0x3f802f9e	1.0014532
155	0x3f7f08cd	0.99622804
156	0x3f784a22	0.9698812
157	0x3f7efd72	0.99605477
158	0x3f7e488d	0.99329454
159	0x3f77d960	0.9681606
160	0x3f77630b	0.966355
161	0x3f7a659e	0.97811306
162	0x3f78b25e	0.97147167
163	0x3f776b98	0.9664855
164	0x3f7eae09	0.99484307
165	0x3f7fd9fa	0.9994198
166	0x3f772d98	0.96553946
167	0x3f800834	1.0002503
168	0x3f81cf0f	1.0141314
169	0x3f792036	0.97314775
170	0x3f7b0ede	0.9806956
171	0x3f77819d	0.9668215
172	0x3f7dbf4a	0.9912001
173	0x3f7aac2d	0.9791897
174	0x3f7be573	0.98396987
175	0x3f7fb041	0.9987832
176	0x3f7734f5	0.9656518
177	0x3f7cd42c	0.9876125
178	0x3f80a1d6	1.0049388
179	0x3f70e629	0.94101197
180	0x3f7d8ab6	0.9903978
181	0x3f7a0dc1	0.97677237
182	0x3f7c22e4	0.9849074
183	0x3f7da954	0.990865
184	0x3f7dd8d0	0.99158955
185	0x3f7749b1	0.9659682
186	0x3f8057a4	1.0026746
187	0x3f809df5	1.0048205
188	0x3f8110a3	1.0083202
189	0x3f7a82de	0.9785594
190	0x3f78590f	0.9701089
191	0x3f7956ce	0.9739808
192	0x3f8193ae	1.0123193
193	0x3f7ad31f	0.97978395
194	0x3f7da0ac	0.9907329
195	0x3f7ab86f	0.97937673
196	0x3f767893	0.9627773
197	0x3f828b73	1.0198807
198	0x3f73fd0f	0.9530801
199	0x3f810290	1.0078907
200	0x3f7d3b77	0.9891886
201	0x3f7976a4	0.97446656
202	0x3f7f1083	0.9963457
203	0x3f7e9cd5	0.99458057
204	0x3f7b161f	0.9808063
205	0x3f77ea15	0.96841556
206	0x3f7dc8a1	0.9913426
207	0x3f7016cd	0.9378479
208	0x3f76c483	0.96393603
209	0x3f7c753b	0.9861638
210	0x3f7c7090	0.98609257
211	0x3f7e4dba	0.9933735
212	0x3f7f0cc1	0.99628836
213	0x3f795c4e	0.9740647
214	0x3f84637e	1.0342863
215	0x3f803bf4	1.0018296
216	0x3f7c5651	0.9856921
217	0x3f7c391c	0.9852464
218	0x3f7e690d	0.99379045
219	0x3f7cdde2	0.98776066
220	0x3f7cc050	0.98730946
221	0x3f7cdde2	0.98776066
222	0x3f74f4d9	0.9568611
223	0x3f7f2caa	0.99677527
224	0x3f80c7f2	1.0061018
225	0x3f7669e7	0.96255344
226	0x3f776520	0.9663868
227	0x3f796d40	0.9743233
228	0x3f78fa0a	0.9725653
229	0x3f7e2f97	0.99291366
230	0x3f797414	0.97442746
231	0x3f7a225e	0.9770869
232	0x3f7b6749	0.98204476
233	0x3f754621	0.95810133
234	0x3f7ad848	0.9798627
235	0x3f7eac92	0.9948207
236	0x3f7536c2	0.9578668

layers.1.weight f4 [30, 237]
0	0xbd18823c	-0.037233576
1	0xbc91d2a9	-0.017800646
2	0x3b8e127d	0.0043357
3	0xbbda1753	-0.0066556125
4	0xbd2bf7ba	-0.041984297
5	0x3c89a8b3	0.016804075
6	0xbd073360	-0.03300798
7	0x3abf8dc0	0.0014614388
8	0x3b0c4b22	0.0021407087
9	0xbd19613e	-0.037446253
10	0xbcc38b58	-0.023870155
11	0xbcc18da3	-0.023627108
12	0xbc4c37a9	-0.012464442
13	0xbb82611b	-0.003978861
14	0xbc1ed69f	-0.009694724
15	0x3c4934c7	0.0122806495
16	0xbc624328	-0.013809957
17	0xbc689b85	-0.014197235
18	0xbcf00108	-0.029297367
19	0x3cd558a2	0.02604324
20	0x3be64eba	0.007028428
21	0xbb5eb48c	-0.0033982126
22	0xbb0d2820	-0.002153881
23	0x3c1d1b85	0.009589081
24	0x3d1cccaa	0.03828112
25	0xbce17996	-0.027523797
26	0x3c534006	0.012893682
27	0x3c0eb1a4	0.008709345
28	0xbd2d08fe	-0.042244904
29	0xbc8401ba	-0.016114105
30	0x3cacc112	0.021088157
31	0x3c7cac94	0.015422005
32	0xbbdc537d	-0.0067238198
33	0x3ba91986	0.0051605133
34	0xbc32268b	-0.010873447
35	0xbc957022	-0.018241946
36	0xbd0a24c9	-0.033726487
37	0xbbdb9601	-0.0067012315
38	0xbc67eb20	-0.014155179
39	0x3cc4deb4	0.024031974
40	0xba35ac03	-0.0006930234
41	0x3be2c4a8	0.006920416
42	0x3b2bff11	0.002624456
43	0x3ce34895	0.02774457
44	0xbccf69e3	-0.025319045
45	0x3bd82356	0.0065960092
46	0xbcdf5921	-0.02726418
47	0xbc964bd7	-0.01834671
48	0x3ccbcf34	0.024879076
49	0x3c43af66	0.011943674
50	0xbc6dac57	-0.014506421
51	0x3c2b049d	0.010438112
52	0xbc0bd87d	-0.008535502
53	0xbc2c3087	-0.010509617
54	0x3d25bf96	0.040465914
55	0xbce43eb5	-0.027861932
56	0x3d2eea25	0.042703766
57	0xbd00bf1f	-0.031432267
58	0x3bdd43b1	0.006752454
59	0x3c122a26	0.008921182
60	0xbc289129	-0.010288515
61	0xbc445c57	-0.011984906
62	0xbc520823	-0.012819323
63	0xbce4242a	-0.027849276
64	0xbcab14a2	-0.020883862
65	0x3c5c9d10	0.013465181
66	0x3c6a86f1	0.014314399
67	0xbbb93f0b	-0.0056532673
68	0xbd116fde	-0.035507075
69	0x3c0de4e8	0.0086605325
70	0xbbdf735b	-0.0068191714
71	0x3cb012c8	0.02149333
72	0xba621100	-0.0008623749
73	0xbc0115ae	-0.007878704
74	0xbd1ef6d0	-0.038809597
75	0x3b5f0137	0.0034027824
76	0x3d09b114	0.03361614
77	0xbcd8d8a2	-0.026470486
78	0x3cc39929	0.023876743
79	0x3a489909	0.00076521985
80	0xbc580b2f	-0.01318626
81	0xbd5ee1c1	-0.054414514
82	0xbcbe957b	-0.023264637
83	0x3c9323ed	0.017961467
84	0xbd1c987d	-0.03823136
85	0x3cd9a5ea	0.026568372
86	0x3c80f899	0.01574354
87	0x3c01d5ca	0.007924506
88	0x3cb879ca	0.022519011
89	0x399ae963	0.00029547056
90	0xbc2f9974	-0.010717738
91	0xbd25076d	-0.040290285
92	0xbc96eed3	-0.018424427
93	0x3cf32e0b	0.029685041
94	0x3c503188	0.012707122
95	0xbd5ed60c	-0.05440335
96	0xbd01ee2c	-0.03172128
97	0xbc27c185	-0.01023901
98	0xbccc9a2c	-0.024975859
99	0x3c948e3e	0.018134233
100	0xbc8f753e	-0.01751196
101	0x3bfb8e96	0.0076769097
102	0xbc6d6b21	-0.014490874
103	0xbcc76ea0	-0.024344742
104	0xbce324cd	-0.027727509
105	0x3c98f422	0.0186711
106	0xbc10c528	-0.008836068
107	0xbc611e91	-0.013740198
108	0xbc1d30c4	-0.009594146
109	0xbcbcd31b	-0.023049882
110	0xbcfeb94a	-0.031094212
111	0x3ce55362	0.027993862
112	0x3c91362f	0.017726032
113	0xbc37c768	-0.011216976
114	0x3cc4b50c	0.024012111
115	0xbc11a02b	-0.008888285
116	0x3c7ab5a4	0.015302096
117	0x3ca47170	0.020073622
118	0x3d4d3272	0.050096937
119	0xbd0caf95	-0.034347136
120	0xbc250b16	-0.010073444
121	0x3bc60cd6	0.0060440106
122	0x3c1c1c81	0.00952828
123	0xbc03d14d	-0.008045507
124	0xbd263b79	-0.04058406
125	0xbd52c51f	-0.05145752
126	0xbc86af0b	-0.016440889
127	0xbc9a6e9c	-0.01885157
128	0xbd4bd1db	-0.04976068
129	0xbd187832	-0.037224002
130	0x3cac69ec	0.021046601
131	0xbccb6929	-0.024830418
132	0xbc2bde10	-0.010489956
133	0xbb5ed357	-0.003400048
134	0x3d029687	0.031881835
135	0x3cbc8b68	0.023015693
136	0xbc046af8	-0.008082144
137	0x3c55507b	0.013019676
138	0x3c63b828	0.013898887
139	0xbcc41c89	-0.023939388
140	0xbce0013d	-0.02734434
141	0x3c03000f	0.007995619
142	0x3b693087	0.0035581903
143	0xbc53ae90	-0.012920037
144	0xbc4b24f8	-0.012398951
145	0x3d1fd2b7	0.039019313
146	0xbce9ad22	-0.028524939
147	0x3bfefe6c	0.0077817943
148	0xbcf1977e	-0.029491182
149	0x3baf2c3e	0.0053458503
150	0xba06e79c	-0.0005146207
151	0x3c295de9	0.010337331
152	0xbcb6a594	-0.02229575
153	0xbbc2a807	-0.0059404406
154	0xbb8877cb	-0.004164671
155	0xbbed2a47	-0.007237706
156	0x3bf576cc	0.0074909683
157	0xbd5055b1	-0.05086297
158	0x3cc489a7	0.023991419
159	0x3c2afd30	0.010436341
160	0xbc1b4fcb	-0.009479473
161	0x3d06c823	0.03290571
162	0x3cbef48c	0.023309968
163	0xbd0b3579	-0.033986542
164	0xbd0084d0	-0.03137666
165	0xbbc66058	-0.0060539655
166	0x3d2bda4e	0.04195624
167	0x3cab51e0	0.020913064
168	0x3c4e5562	0.012593599
169	0xbd28d7c6	-0.041221403
170	0x3ca21f3f	0.01979029
171	0xbd01ae2d	-0.031660248
172	0xbc341530	-0.01099138
173	0xbaabcb0d	-0.0013106778
174	0x3c82522e	0.015908327
175	0xbd19de42	-0.037565477
176	0x3cc10508	0.02356197
177	0xbd697c17	-0.057003107
178	0xbca52f0d	-0.020164037
179	0x3d20b3d4	0.039233997
180	0x3c0b820a	0.00851489
181	0xbc141fee	-0.009040816
182	0xbcde5836	-0.027141672
183	0xbc04a7cb	-0.008096646
184	0xbd6363bf	-0.055515047
185	0xbce32100	-0.027725697
186	0xbb6a82f5	-0.0035783623
187	0x3c04e050	0.008110121
188	0xbc6f3ea2	-0.014602335
189	0xbd5cf14a	-0.05394105
190	0x3c6260b3	0.013817
191	0x3c4d6f2a	0.012538711
192	0x3c697fb2	0.014251636
193	0x3d1d4e48	0.038404733
194	0xbc800a60	-0.015629947
195	0xbc852b32	-0.016255949
196	0xbc90dbd2	-0.017682943
197	0xbc1fe615	-0.009759446
198	0x3994c232	0.00028373447
199	0xbc935dda	-0.017989088
200	0xbc5e06a8	-0.013551392
201	0x3c9ba6e1	0.019000473
202	0x3ba5d474	0.005060727
203	0xbcac6562	-0.021044437
204	0xbbb80d22	-0.0056168
205	0x3bd9076c	0.006623199
206	0xbd05b141	-0.032639746
207	0xbc9664ca	-0.018358607
208	0x3d0625a5	0.032750744
209	0x3c011429	0.007878342
210	0xbc7e80a1	-0.015533597
211	0xbc874051	-0.01651016
212	0xbc9ef1f0	-0.019402474
213	0xbca12caf	-0.019674627
214	0xbc2d56f7	-0.010579816
215	0xbbafc758	-0.00536434
216	0x3c9b4e65	0.01895828
217	0x3c8ce4c5	0.01719893
218	0x3d23895d	0.03992592
219	0x3c7cd844	0.015432421
220	0x3d01cf47	0.031691816
221	0xbaf83222	-0.0018935839
222	0xb93547ab	-0.00017288204
223	0xbc2a8536	-0.0104077365
224	0x3cc38c28	0.023870543
225	0xbd080225	-0.03320517
226	0xbcc54cec	-0.02408453
227	0x3d5500da	0.052002765
228	0x3a2182c9	0.0006161151
229	0xbc2612c3	-0.010136309
230	0xbc344b55	-0.011004289
231	0xbd24d105	-0.0402384
232	0xbc9d8551	-0.01922861
233	0xb89bb724	-7.4250886e-05
234	0xbc44db60	-0.012015194
235	0x3c40c34f	0.011765315
236	0x3d558cf9	0.052136395
237	0xbc808bcc	-0.01569166
238	0x3b5234d0	0.0032074936
239	0x3d0c16b7	0.03420135
240	0x3d4cb22e	0.049974613
241	0xbc845c5d	-0.016157323
242	0xbd3a99f1	-0.045556966
243	0xbd166390	-0.036716044
244	0x3cca876c	0.024722777
245	0xbd867843	-0.06565907
246	0xbc80dca5	-0.015730212
247	0x3d9b6bc0	0.07588911
248	0x3c99dff9	0.018783556
249	0x3d732e6f	0.059370454
250	0x3d06c3ad	0.032901455
251	0xbcd7a3a2	-0.026323143
252	0xbd9b5781	-0.075850494
253	0x3d20e1ca	0.03927783
254	0x3d8efbf5	0.06981651
255	0xb8901323	-6.8700196e-05

layers.1.bias f4 [30]
0	0x3f7e1413	0.9924938
1	0x3f80f168	1.0073671
2	0x3f8091c7	1.0044488
3	0x3f7e9971	0.99452883
4	0x3f7e7b57	0.9940695
5	0x3f7f4953	0.9972126
6	0x3f7ec207	0.9951481
7	0x3f81152e	1.0084589
8	0x3f7f4f02	0.9972993
9	0x3f7e1fb1	0.9926711
10	0x3f7f24a5	0.9966529
11	0x3f81b451	1.0133153
12	0x3f81a8c1	1.0129625
13	0x3f7d95b2	0.9905654
14	0x3f80064a	1.0001919
15	0x3f7fe6bb	0.9996144
16	0x3f8090bd	1.0044171
17	0x3f7f8b04	0.99821496
18	0x3f8177e7	1.0114716
19	0x3f7f3493	0.99689597
20	0x3f80088c	1.0002608
21	0x3f802e33	1.0014099
22	0x3f7f4d72	0.9972755
23	0x3f81424f	1.0098361
24	0x3f81e12d	1.0146843
25	0x3f8118cf	1.0085696
26	0x3f81b46c	1.0133185
27	0x3f7ff662	0.99985325
28	0x3f7feaa7	0.99967426
29	0x3f80d23a	1.0064156

layers.2.weight f4 [28, 30]
0	0x3bdd008a	0.006744449
1	0x3d0ce1db	0.03439508
2	0xbce68ee4	-0.028144307
3	0xbc993754	-0.01870314
4	0x3cad4168	0.021149352
5	0x3b02712d	0.0019903884
6	0x3d3e526f	0.046465334
7	0xbd313257	-0.0432609
8	0xbbdaedf9	-0.0066812006
9	0xbd43a907	-0.04776862
10	0x3c1d8d4d	0.009616208
11	0xbd16e5aa	-0.03684012
12	0xbcaa124e	-0.020760681
13	0x3d685799	0.056724165
14	0xbcbe1c30	-0.0232068
15	0x3d2e8e81	0.04261637
16	0xbdbf0e58	-0.09328908
17	0x3d9a7d79	0.07543463
18	0xbc607629	-0.013700047
19	0xbd27d05d	-0.040970195
20	0xbde77353	-0.11301293
21	0xbcbf0c91	-0.023321422
22	0xbdc34fde	-0.09536718
23	0xbcf27076	-0.029594641
24	0xbc467000	-0.012111664
25	0xbcce838a	-0.025209207
26	0xbcd30288	-0.025758043
27	0x3d01b08d	0.031662513
28	0x3d8f1d0b	0.069879614
29	0xbd8f1987	-0.06987291
30	0xbb42cf76	-0.0029725707
31	0xbd949f01	-0.0725689
32	0x3da4304b	0.08017024
33	0xbd85cc67	-0.06533127
34	0xbd367418	-0.04454431
35	0xbda65166	-0.08120994
36	0xbd1558ab	-0.036461513
37	0xbc0bad96	-0.008525273
38	0xbda9f1df	-0.082980864
39	0xbd21cea4	-0.03950371
40	0xbdbc24b6	-0.091866896
41	0x3d66983b	0.056297522
42	0x3cc0f2c3	0.023553258
43	0xbbc7ae67	-0.0060937884
44	0xbd3a27b9	-0.04544804
45	0xbd8564b2	-0.06513347
46	0x3d17e8f1	0.037087385
47	0xbda43f1c	-0.0801985
48	0xbd0bbc3a	-0.034115054
49	0xbd8bd165	-0.06827048
50	0xbd489616	-0.048971258
51	0xbdb633b7	-0.088965826
52	0xbd6fd0da	-0.058548786
53	0x3d3e3f96	0.04644736
54	0x3bab5d18	0.0052296035
55	0x3d4f5957	0.05062231
56	0x3d80b3d7	0.06284302
57	0xbdda45a3	-0.106578134
58	0xbd57545c	-0.052570686
59	0x3d009efb	0.031401616
60	0x3cb7d73f	0.022441505
61	0xbd61d2d6	-0.05513271
62	0xbc9a402f	-0.018829433
63	0x3d8e30d8	0.0694291
64	0x3cbd08b1	0.023075433
65	0xbcc23774	-0.023708083
66	0xbdd6b756	-0.10484187
67	0xbcffafad	-0.031211698
68	0xbc628515	-0.013825675
69	0x3cbded5f	0.023184476
70	0x3d72b4ff	0.059254643
71	0xbc7d6817	-0.0154667115
72	0xbaba024e	-0.0014191361
73	0xbd0ce6b8	-0.034399718
74	0xbcdd3556	-0.027002972
75	0xbdc3b99f	-0.09556889
76	0x3c9ff302	0.019525055
77	0x3d2f240a	0.04275898
78	0xbd3ad08b	-0.04560904
79	0x3cf67311	0.030084165
80	0x3d45e5ed	0.048314977
81	0xbd79aa01	-0.060953144
82	0x3cdd8eb0	0.027045578
83	0xbcb49be8	-0.022046998
84	0xbd3520b3	-0.044220638
85	0xbd3b6ab5	-0.04575606
86	0xbc8a48c1	-0.016880395
87	0x3d16ff5b	0.03686462
88	0x3d25fc4e	0.04052382
89	0xba869204	-0.0010266905
90	0x3b373795	0.0027956713
91	0xbcbd15e3	-0.023081725
92	0xbd67047d	-0.056400765
93	0x3d0d50f7	0.034501042
94	0x3c0f25ad	0.00873701
95	0xbce60b8a	-0.028081674
96	0xbd9a8b45	-0.07546095
97	0xbba1518e	-0.004923052
98	0xbc8cb146	-0.017174374
99	0xbcae7a6f	-0.021298615
100	0x3d457c21	0.04821408
101	0xbaf27367	-0.0018497527
102	0xbcb4d31b	-0.02207332
103	0xbd29c875	-0.041450936
104	0xbca78384	-0.020448454
105	0xbd80846d	-0.06275258
106	0x3c9eb718	0.019374415
107	0x3ce9df1e	0.028548773
108	0xbd5f2f25	-0.05448832
109	0x3be43e00	0.006965399
110	0x3d0345b5	0.0320489
111	0x3c8ad166	0.016945552
112	0x3cf1a7d7	0.029498978
113	0xbc4057b3	-0.011739659
114	0xbd644204	-0.05572702
115	0xbd2e361b	-0.042532068
116	0xbd4a430d	-0.04938035
117	0x3d803fb7	0.06262153
118	0x3d250e6d	0.04029696
119	0xbb581b30	-0.003297519
120	0xbd2f4a36	-0.042795382
121	0x3c13a93a	0.009012515
122	0xbd5746dc	-0.05255781
123	0xbd407e6c	-0.046995565
124	0x3d44987b	0.04799698
125	0x3c8404fe	0.016115662
126	0x3dddbdf1	0.10827244
127	0xbd3e52ad	-0.046465565
128	0x3bc9cac0	0.006158203
129	0xbdba6ad9	-0.09102411
130	0x3d046ed1	0.032332245
131	0xbd392952	-0.04520542
132	0xbcef7c8f	-0.029234199
133	0x3d94cddd	0.07265828
134	0xbd45360c	-0.048147246
135	0x3d666cef	0.05625623
136	0xbdc37b0c	-0.09544954
137	0x3d82f356	0.06394069
138	0x3cf1d029	0.029518204
139	0x3c986db2	0.018606994
140	0xbe0a1f5a	-0.13488522
141	0x3b3642c5	0.0027810794
142	0xbdeb554e	-0.1149088
143	0xbccd913f	-0.025093673
144	0xbcda3c76	-0.026640158
145	0xbcf7a3bd	-0.030229444
146	0xbcd77098	-0.026298806
147	0x3d129564	0.035787
148	0x3d781080	0.06056261
149	0xbd6d0898	-0.057869524
150	0xbcd2c797	-0.025729937
151	0x3d090069	0.033447657
152	0xbd0b804d	-0.034057904
153	0xbcf8d455	-0.030374685
154	0x3d34f88f	0.044182356
155	0x3bac745b	0.005262894
156	0x3d4ed612	0.050497122
157	0xbd6b8a5a	-0.05750499
158	0xbc25d218	-0.010120891
159	0xbdab47c3	-0.08363297
160	0x3d1738b5	0.036919314
161	0xbd5de26e	-0.05417102
162	0xbd2a4965	-0.0415739
163	0x3d8c343d	0.06845901
164	0xbd5ef63c	-0.054434046
165	0x3d2fafff	0.042892452
166	0xbd4d0766	-0.050055884
167	0x3d5d28c9	0.053993974
168	0x3bcf95f7	0.006335016
169	0xbcd82d6a	-0.026388843
170	0xbde6d4c2	-0.11271049
171	0xbcd75495	-0.026285449
172	0xbd681319	-0.056658838
173	0xbd743549	-0.05962113
174	0xbd1d223a	-0.03836272
175	0xbd1f3331	-0.03886718
176	0xbd07ca10	-0.033151686
177	0x3cd201b5	0.02563558
178	0x3d821e33	0.06353416
179	0xbd9bd8f8	-0.07609743
180	0xbb044c36	-0.0020187027
181	0xbda0d095	-0.07852284
182	0x3dcfe3b4	0.10150853
183	0xbddfb344	-0.10922864
184	0xbd0439a0	-0.032281518
185	0xbd578dd8	-0.052625507
186	0xb96bcac0	-0.00022486877
187	0xbd209b99	-0.03921089
188	0xbd69ffcb	-0.05712871
189	0xbd57a25f	-0.052645084
190	0xbd4de13f	-0.05026364
191	0x3d733133	0.059373092
192	0x3cb7c7d1	0.022434147
193	0xbd0e8b84	-0.03480102
194	0xbd82f258	-0.0639388
195	0xbd48f5fc	-0.049062714
196	0x3cbf3512	0.023340736
197	0xbd67c73d	-0.056586493
198	0xbc78cf23	-0.015186104
199	0xbd79bc1a	-0.060970403
200	0xbc0b39c9	-0.008497664
201	0xbda345cf	-0.07972299
202	0xbd0236a2	-0.031790383
203	0x3c816e07	0.015799535
204	0xba2dd1ce	-0.00066306896
205	0x3d458a19	0.048227403
206	0x3ce6e99f	0.028187571
207	0xbd40696d	-0.04697554
208	0xbdb8f2e0	-0.090307
209	0x3d44d23f	0.04805207
210	0xbca6f18d	-0.020378852
211	0xbd26ecae	-0.04075306
212	0xbd93f577	-0.07224553
213	0x3daa0e56	0.083035156
214	0x3da72e35	0.0816311
215	0xbbc5f7e4	-0.0060415138
216	0xbdcd1cb1	-0.10015238
217	0x3cab6c9c	0.020925812
218	0x3cc98bdc	0.024602823
219	0x3d0e4ecc	0.034743115
220	0x3dbe7fbb	0.093017064
221	0xbd76a38c	-0.060214564
222	0xbd7394ce	-0.059468083
223	0xbe1a9ca1	-0.15098812
224	0x3c256987	0.01009596
225	0xbe088e68	-0.13335574
226	0x3d017add	0.031611312
227	0x3cdd6b85	0.027028808
228	0xbe138088	-0.144045
229	0x3d947c3c	0.07250258
230	0x3d0887bc	0.03333257
231	0xbce76990	-0.028248578
232	0x3dcdc147	0.1004663
233	0xbcf3a0d0	-0.029739767
234	0xbda8f31d	-0.08249495
235	0xbd7e04b7	-0.062016215
236	0xbd2b5191	-0.041825835
237	0x3dd5c6c6	0.10438304
238	0x3d7d6640	0.06186509
239	0x3cd53a2f	0.02602872
240	0x3b4d05a1	0.0031283873
241	0xbd547fd4	-0.05187972
242	0xbd2facc9	-0.04288939
243	0x3db366c8	0.08759838
244	0x3d9aa121	0.07550264
245	0xbafe4dd3	-0.0019401856
246	0xbdefa854	-0.11702028
247	0x3cf8c9f3	0.030369734
248	0x3c96a90e	0.018391158
249	0x3d82e4c9	0.063912936
250	0x3dbba46f	0.091622226
251	0xbd5db7a0	-0.054130197
252	0xbd74907b	-0.0597081
253	0xbdfc1d79	-0.12310309
254	0x3c1fa042	0.009742798
255	0xbe166394	-0.14686424

layers.2.bias f4 [28]
0	0x3f7c9ded	0.98678476
1	0x3f820f18	1.0160856
2	0x3f79b3d7	0.9754004
3	0x3f7c550b	0.98567265
4	0x3f7c0d4f	0.9845781
5	0x3f7aa99b	0.9791505
6	0x3f7f5ab4	0.99747777
7	0x3f76ab62	0.9635526
8	0x3f7826af	0.96934026
9	0x3f7ba186	0.9829334
10	0x3f8044f6	1.0021045
11	0x3f8233b0	1.0172024
12	0x3f78088b	0.96888036
13	0x3f8043b0	1.0020657
14	0x3f7ee228	0.9956384
15	0x3f81c1dc	1.0137286
16	0x3f80bfe9	1.0058566
17	0x3f7b23ec	0.9810169
18	0x3f7944b6	0.9737047
19	0x3f8060d5	1.0029551
20	0x3f80e3bb	1.0069498
21	0x3f830e43	1.0238727
22	0x3f80b5b7	1.0055455
23	0x3f79b4dc	0.97541595
24	0x3f815a59	1.0105697
25	0x3f7e7950	0.9940386
26	0x3f7a7222	0.978304
27	0x3f775635	0.96615916

output_layer.weight f4 [1, 28]
0	0xbdf50dab	-0.119654976
1	0x3a0b5598	0.00053151837
2	0x3d4bfdaf	0.04980248
3	0x3d5b1ff4	0.05349727
4	0xbdc37902	-0.09544565
5	0xbe07ba70	-0.13254714
6	0x3b0535d3	0.0020326271
7	0x3d7a281d	0.06107341
8	0x3d788f40	0.06068349
9	0xbe16e721	-0.14736606
10	0x3a97711a	0.0011554093
11	0x3b5ffc43	0.003417746
12	0xbdcda7a5	-0.10041741
13	0x3b5c5445	0.0033619564
14	0x3b5c8bc1	0.0033652636
15	0x3a87a6a5	0.0010349347
16	0x3ae6f80f	0.0017621535
17	0x3d38d601	0.045125965
18	0x3d77f22f	0.0605337
19	0x3b4622b4	0.0030233087
20	0x3a991f72	0.0011682345
21	0xb9e53ff7	-0.0004372594
22	0x3aa15b86	0.0012310601
23	0xbdb94bcb	-0.090476595
24	0x3b45ff46	0.003021197
25	0xbdacfa5d	-0.084461905
26	0x3dcb0787	0.09913545
27	0x3da642f4	0.08118239

uncertainty_layer.weight f4 [1, 28]
0	0x3d01d89a	0.031700708
1	0xbe2c9186	-0.16852388
2	0x3d6d0a89	0.057871375
3	0x3db0d96e	0.086352214
4	0xba88ea70	-0.0010445844
5	0x3b846c20	0.00404121
6	0xbe6e25a7	-0.2325655
7	0xbc1c7572	-0.0095494855
8	0xbc8b0c74	-0.016973712
9	0x3c945f24	0.018111773
10	0xbe1f0b84	-0.15531737
11	0xbdc147b1	-0.09437502
12	0xbdb29a16	-0.08720796
13	0xbe7b78fe	-0.24557874
14	0xbe3e9440	-0.1861124
15	0xbe0291b5	-0.12750895
16	0xbe1d6a73	-0.15372638
17	0x3cd2b452	0.025720749
18	0x3e0409e5	0.128944
19	0xbdd1c511	-0.102426656
20	0xbdefeed9	-0.117154785
21	0xbdae63ef	-0.085151546
22	0xbe6d8489	-0.2319509
23	0x3bbc3d6d	0.005744627
24	0xbdfb9ae0	-0.122853994
25	0xbbae9da6	-0.0053288518
26	0x3df30ffd	0.11868284
27	0xbbf4924d	-0.0074637295

exp_avg f4 [237, 200]
0	0x3b44e7c7	0.0030045377
1	0x391fe603	0.00015249108
2	0x3b44a54b	0.003000575
3	0xbad274f8	-0.0016056588
4	0x39f36b99	0.00046428738
5	0x3ac31f45	0.0014886638
6	0x3ad8dbd4	0.0016545006
7	0x3ac2b20e	0.001485409
8	0x3a8857d7	0.0010402155
9	0x80000306	-1.085e-42
10	0x3a1ace4a	0.0005905373
11	0xbb584f4a	-0.0033006244
12	0x3b38c144	0.0028191367
13	0x3a9c9af7	0.0011948039
14	0x3b24eb1d	0.0025164552
15	0x3b0926a0	0.0020927563
16	0x3af16c4e	0.0018419118
17	0xba4af16a	-0.0007741662
18	0xb8c0506e	-9.1702546e-05
19	0xb883425a	-6.258926e-05
20	0xb9d23a75	-0.00040097875
21	0x3ac24d46	0.0014824055
22	0x38a50179	7.8680874e-05
23	0xb985df13	-0.0002553394
24	0x3ad4eb86	0.0016244508
25	0x3aec17c6	0.0018012456
26	0x3afaeb7a	0.0019143664
27	0x3b0df8ae	0.0021663117
28	0x3b291949	0.0025802425
29	0x3b2cd89f	0.0026374233
30	0x3b79a83b	0.0038094658
31	0xb97f11ba	-0.00024325299
32	0xb8756d6d	-5.8514463e-05
33	0x3b4871d2	0.003058542
34	0x39d85bc7	0.0004126711
35	0x39dbdb9b	0.00041934554
36	0x3a62a4c1	0.0008645766
37	0xba902043	-0.0010995943
38	0x3b7ffc64	0.0039060349
39	0xba46b159	-0.00075795274
40	0x3a6181ab	0.0008602391
41	0x3af820cc	0.0018930673
42	0x398b2080	0.0002653636
43	0x3af17574	0.0018421845
44	0x3ad06d52	0.0015901721
45	0xba5e1c2d	-0.00084728264
46	0x3a6473af	0.0008714748
47	0xbad0c7c0	-0.0015928671
48	0xba5d4cba	-0.0008441914
49	0x3a939f53	0.0011262692
50	0xb8937a56	-7.032293e-05
51	0x3a81f814	0.0009915852
52	0xb94560b8	-0.00018823415
53	0xbb9ef5c8	-0.0048510768
54	0xba58a3f9	-0.000826418
55	0x3aadd8b0	0.001326343
56	0x3b10b447	0.002208011
57	0xbae1554d	-0.0017191559
58	0x38011e44	3.0784184e-05
59	0x809c4d9f	-1.4354183e-38
60	0x3b8c24cc	0.0042768475
61	0xbac0ce66	-0.0014709949
62	0xb9255708	-0.00015768048
63	0x3ad6561c	0.0016352567
64	0x3b715570	0.0036824606
65	0xba06fa3c	-0.0005148982
66	0xb800e5b9	-3.0731524e-05
67	0x3b27b6e0	0.002559118
68	0x3b3326ea	0.0027336427
69	0xbb48856b	-0.0030597101
70	0x39bc639c	0.0003593237
71	0xba1b52e9	-0.00059251353
72	0x000002de	1.029e-42
73	0x3a63b808	0.00086867856
74	0x3a0084ca	0.00049025996
75	0x3b44b140	0.0030012876
76	0x3a10e588	0.0005527367
77	0x39e156fd	0.00042980156
78	0xbb2530db	-0.0025206122
79	0xba0d9808	-0.00054013776
80	0x3a17076d	0.00057612994
81	0xb96bd9c3	-0.00022492469
82	0x00000400	1.435e-42
83	0x3a7419b7	0.0009311693
84	0x3a1f7000	0.0006082058
85	0xba1410aa	-0.0005648235
86	0x3acfed2c	0.0015863529
87	0x3b7bd232	0.0038424847
88	0xbaa34608	-0.0012456784
89	0xba427087	-0.00074172806
90	0xbb830018	-0.003997814
91	0xb92d8aae	-0.00016550228
92	0x3a2b9cfc	0.0006546525
93	0x3994f9dd	0.00028414922
94	0x3b1622e3	0.0022908978
95	0x3a30c68d	0.00067434536
96	0x3a9cdab5	0.0011967035
97	0xbb2f5a03	-0.0026756532
98	0x3861f4b1	5.3872067e-05
99	0x398e7d16	0.00027177547
100	0x3b6b1ee0	0.0035876557
101	0x3b5a96bc	0.0033354005
102	0x3a95e86c	0.0011437065
103	0xbabe0082	-0.0014496001
104	0xba6081ff	-0.0008564293
105	0x3a10a6e6	0.0005518034
106	0xbb1c1275	-0.0023814712
107	0x3ac349ec	0.001489935
108	0xba80f389	-0.0009838204
109	0x3a0d2f20	0.00053857453
110	0xba6f079a	-0.0009118259
111	0xba0003f2	-0.00048834004
112	0x3b0aedaf	0.00211988
113	0x3b3ebacd	0.002910304
114	0x3a1a1768	0.00058781216
115	0xb8ba1b47	-8.874252e-05
116	0xb8bb9c1f	-8.945935e-05
117	0xb879294a	-5.940468e-05
118	0xba221f02	-0.000618443
119	0xb8cb3706	-9.690043e-05
120	0xba2c9430	-0.0006583361
121	0x3a35d337	0.00069360755
122	0xb84a62d2	-4.8252587e-05
123	0xb906704a	-0.00012821067
124	0xb9381f22	-0.00017559205
125	0x3b83f786	0.00402731
126	0x3b8496ba	0.0040462883
127	0x000002f2	1.057e-42
128	0xb8f4b669	-0.00011668803
129	0x3bb6ed5d	0.005582495
130	0xb97d002b	-0.00024128023
131	0xbb01901b	-0.0019769731
132	0xbb069479	-0.0020535274
133	0x3a40c5cc	0.0007353693
134	0xba86d5ed	-0.0010287144
135	0x3ac5836b	0.0015069073
136	0x3a354f84	0.0006916451
137	0x80000126	-4.12e-43
138	0x000000fe	3.56e-43
139	0x398bdfb7	0.00026678827
140	0x3aa4dca7	0.0012577967
141	0xb73a5f47	-1.1108647e-05
142	0x3b35790a	0.0027690553
143	0xbd3f2ae2	-0.046671756
144	0xba8537a6	-0.0010163679
145	0x3b832b4e	0.004002965
146	0x000003c4	1.351e-42
147	0xb8b52069	-8.6367894e-05
148	0x00000004	6e-45
149	0x3a96f434	0.001151687
150	0x800003ad	-1.319e-42
151	0xbae042e3	-0.0017109778
152	0x800001f9	-7.08e-43
153	0x0000004b	1.05e-43
154	0x8000055f	-1.927e-42
155	0x3b4e33c9	0.0031463972
156	0x3a440398	0.0007477342
157	0x8000113c	-6.183e-42
158	0x8000011d	-4e-43
159	0x3b29e560	0.0025924072
160	0x00000483	1.618e-42
161	0xb8f7f31b	-0.0001182316
162	0x3afc6529	0.0019256222
163	0xb8aadd92	-8.1475024e-05
164	0x8000007e	-1.77e-43
165	0x0000043d	1.52e-42
166	0x3a192f57	0.0005843541
167	0x3a176c68	0.00057763467
168	0x800004c9	-1.717e-42
169	0x3c0dd971	0.008657799
170	0xba90fd88	-0.0011061886
171	0xba4ed58e	-0.00078900985
172	0x39ca84a2	0.00038627262
173	0x0000034c	1.183e-42
174	0x80000753	-2.627e-42
175	0x000000cd	2.87e-43
176	0x800005d7	-2.095e-42
177	0xba8eec89	-0.0010904233
178	0x00000319	1.111e-42
179	0xba4307a4	-0.0007439798
180	0xb9bf62bc	-0.00036503922
181	0xb9bf3507	-0.00036469867
182	0x080351c1	3.951748e-34
183	0x8000028c	-9.14e-43
184	0xbabb4278	-0.0014286777
185	0x3b47ef7a	0.003050773
186	0xba953b4a	-0.0011385467
187	0x80000203	-7.22e-43
188	0xbb2b074a	-0.0026096874
189	0x80000627	-2.207e-42
190	0xb7f9ec7f	-2.979324e-05
191	0xba9f4915	-0.0012152517
192	0xba506596	-0.0007949708
193	0xba93a2ff	-0.0011263787
194	0xb8741d3f	-5.820137e-05
195	0xb9266e3e	-0.00015872062
196	0x00000117	3.91e-43
197	0x3b919bd0	0.004443623
198	0x80000529	-1.851e-42
199	0xb90e60eb	-0.0001357828
200	0xbacb934f	-0.0015531572
201	0xba214c59	-0.0006153039
202	0xbacc097e	-0.0015566794
203	0xbb4f9392	-0.0031673652
204	0xbb98fa11	-0.004668482
205	0xb96efc54	-0.00022791448
206	0xb9822942	-0.00024826272
207	0xb96f1a74	-0.0002280267
208	0xb9a1a671	-0.00030832321
209	0x8000063b	-2.235e-42
210	0xbacf0370	-0.0015793871
211	0xba429176	-0.0007422188
212	0x3a034fbc	0.0005009135
213	0xbaca381b	-0.0015428098
214	0x3b1ff8df	0.0024409813
215	0x3b2d2a09	0.002642276
216	0x3b365ab6	0.0027825064
217	0x3aa9d93a	0.0012958415
218	0x393cfcef	0.00018023302
219	0xb8d53545	-0.00010166554
220	0xb8a3103d	-7.77547e-05
221	0xb91126d0	-0.00013842736
222	0xb813251d	-3.5082096e-05
223	0xb9b4b1d0	-0.00034464756
224	0x38fc5536	0.00012032168
225	0xbaa67685	-0.0012700116
226	0x395659e7	0.00020442122
227	0xbafbf39f	-0.0019222385
228	0xb8dbbb57	-0.000104776285
229	0xbb184888	-0.0023236591
230	0xba7eb6b4	-0.0009716556
231	0xbaa8bef2	-0.0012874289
232	0xb87d28cc	-6.0357896e-05
233	0xba07509d	-0.00051618536
234	0x3a1b6834	0.0005928308
235	0x3aa15695	0.0012309129
236	0xb98f130d	-0.0002728928
237	0x3b072893	0.002062355
238	0xbb2707c5	-0.0025486809
239	0x3b296385	0.0025846672
240	0x3b28d412	0.002576117
241	0x3a44612b	0.0007491286
242	0xbb6d630f	-0.0036222374
243	0xb8a1f42c	-7.722559e-05
244	0xba74cea4	-0.0009338653
245	0x3885eba4	6.385826e-05
246	0xb979085d	-0.00023749606
247	0xb9e8d851	-0.00044411657
248	0x3b6dc594	0.0036281096
249	0xbb44cf4d	-0.0030030787
250	0xba7b9ad9	-0.0009597964
251	0xba1cb801	-0.00059783465
252	0x3b5af8c1	0.003341243
253	0x3bd55e02	0.0065114507
254	0xbaf23bd0	-0.001848096
255	0xbacf92c1	-0.0015836583

exp_avg_sq f4 [237, 200]
0	0x37dc1768	2.6236943e-05
1	0x38a51770	7.872179e-05
2	0x37dc185c	2.6237387e-05
3	0x37f7ee18	2.9555566e-05
4	0x3806a3b2	3.2100543e-05
5	0x37d100a4	2.491504e-05
6	0x37d2c115	2.5123862e-05
7	0x37d10324	2.4916204e-05
8	0x37c4bc1e	2.345262e-05
9	0x28acc300	1.9180404e-14
10	0x37e1edf2	2.6932892e-05
11	0x38c04df3	9.1697926e-05
12	0x38b66786	8.697719e-05
13	0x37efdad4	2.859292e-05
14	0x37991211	1.8247434e-05
15	0x37bd9698	2.2600681e-05
16	0x37e1ff72	2.6941041e-05
17	0x38038fc9	3.1366744e-05
18	0x37b0eb2f	2.109035e-05
19	0x37c3c780	2.333871e-05
20	0x37c73cb1	2.375091e-05
21	0x37c80464	2.3843902e-05
22	0x37bb2d25	2.231316e-05
23	0x37c7b265	2.380572e-05
24	0x381aee80	3.693858e-05
25	0x37c3de57	2.3349347e-05
26	0x3829d8d8	4.049469e-05
27	0x37d1cd2b	2.501028e-05
28	0x37fa8f7d	2.986914e-05
29	0x3804fcca	3.170668e-05
30	0x3803ac84	3.13935e-05
31	0x37841aa0	1.5748024e-05
32	0x332598e3	3.8556106e-08
33	0x37bc9f57	2.2485545e-05
34	0x376565f3	1.3673201e-05
35	0x37a063bc	1.9119929e-05
36	0x37b52b2a	2.1596981e-05
37	0x381276e9	3.4919856e-05
38	0x38c222f1	9.257149e-05
39	0x378eb79a	1.7013215e-05
40	0x38d6dc2b	0.00010245325
41	0x38209306	3.82839e-05
42	0x37d5132b	2.5400504e-05
43	0x37eb68c5	2.806297e-05
44	0x38aa7699	8.128322e-05
45	0x38202838	3.818443e-05
46	0x382aea48	4.074935e-05
47	0x37f8c1ed	2.9654208e-05
48	0x38152ed1	3.556797e-05
49	0x37d5950d	2.5460986e-05
50	0x375e0a08	1.3234567e-05
51	0x38174a2d	3.6070287e-05
52	0x38296860	4.0389947e-05
53	0x379a95df	1.842802e-05
54	0x37a08b49	1.9138346e-05
55	0x381dc95a	3.761924e-05
56	0x37ff2054	3.0413423e-05
57	0x388135bd	6.161209e-05
58	0x37db56fe	2.6147343e-05
59	0x2b39756c	6.588816e-13
60	0x37db1f63	2.612145e-05
61	0x3814d18c	3.5481105e-05
62	0x38419f37	4.6163066e-05
63	0x38766c16	5.8751633e-05
64	0x38126b95	3.4909306e-05
65	0x3867cc3d	5.5264903e-05
66	0x380bdac2	3.3343917e-05
67	0x37ff497d	3.043259e-05
68	0x37caf52e	2.4194447e-05
69	0x37b337c4	2.136443e-05
70	0x385d54fc	5.2769654e-05
71	0x37d99210	2.5936431e-05
72	0x27067d13	1.8664039e-15
73	0x38184614	3.630489e-05
74	0x37cab0d0	2.4162611e-05
75	0x383671e7	4.349826e-05
76	0x37e2b152	2.702387e-05
77	0x382e765a	4.1595056e-05
78	0x37c34f30	2.3282686e-05
79	0x370f30c2	8.5348165e-06
80	0x37547f9d	1.2665897e-05
81	0x36341efa	2.684012e-06
82	0x285f3921	1.2391375e-14
83	0x37cc37d7	2.4344698e-05
84	0x38220fc3	3.863849e-05
85	0x381025cf	3.4367487e-05
86	0x383a37fb	4.439799e-05
87	0x37e32bc3	2.7080887e-05
88	0x37dbe4f5	2.621345e-05
89	0x3811cc9f	3.4761262e-05
90	0x37d59b42	2.5463876e-05
91	0x3885e965	6.385407e-05
92	0x387a5010	5.967921e-05
93	0x3825ed75	3.9560215e-05
94	0x38b3704d	8.556303e-05
95	0x3817eea0	3.6223442e-05
96	0x37b2e772	2.1327029e-05
97	0x3834aac5	4.3074386e-05
98	0x382962c5	4.0384726e-05
99	0x37b9beb1	2.2142516e-05
100	0x38a5de56	7.9092264e-05
101	0x38646d09	5.4460983e-05
102	0x380be2c0	3.335136e-05
103	0x37cb31a5	2.4222603e-05
104	0x3791a6dc	1.7363047e-05
105	0x38106549	3.4426605e-05
106	0x3839f859	4.433873e-05
107	0x3821bf66	3.8563645e-05
108	0x3738ac67	1.1007395e-05
109	0x37b40ada	2.1462725e-05
110	0x38492220	4.7953916e-05
111	0x38153279	3.5571375e-05
112	0x380fe47d	3.4306653e-05
113	0x3810250a	3.436677e-05
114	0x37b4d9b8	2.1559055e-05
115	0x3734c7cd	1.0775356e-05
116	0x373fa3cc	1.1422624e-05
117	0x3325a514	3.8567194e-08
118	0x370dda43	8.455073e-06
119	0x357f8a39	9.5196043e-07
120	0x37be6c9d	2.2700342e-05
121	0x381c145a	3.7212252e-05
122	0x363702e2	2.7270803e-06
123	0x36c71f63	5.934316e-06
124	0x36b3bfc3	5.3569397e-06
125	0x383bdaaa	4.478792e-05
126	0x383bae20	4.474644e-05
127	0x281f7cd1	8.853338e-15
128	0x375761f9	1.283781e-05
129	0x3802c6f0	3.117969e-05
130	0x38038876	3.1359923e-05
131	0x38348c21	4.304585e-05
132	0x37aa2648	2.0283405e-05
133	0x36982fdd	4.535525e-06
134	0x381e0404	3.7673875e-05
135	0x37f503e2	2.9208084e-05
136	0x381c137e	3.7211452e-05
137	0x28a8cc72	1.874041e-14
138	0x280b3394	7.727234e-15
139	0x36d158fc	6.2390445e-06
140	0x37de962a	2.6534388e-05
141	0x36621687	3.3689737e-06
142	0x383501f7	4.3155593e-05
143	0x3a260149	0.0006332589
144	0x382d4d99	4.1318683e-05
145	0x3854cb39	5.0734005e-05
146	0x290b42b2	3.092205e-14
147	0x33a5ccee	7.720688e-08
148	0x27b2f0db	4.966606e-15
149	0x380be3df	3.3352404e-05
150	0x2629a696	5.885942e-16
151	0x38bd8a61	9.0379974e-05
152	0x294fe2cf	4.615996e-14
153	0x26b8adf0	1.2814711e-15
154	0x269baa69	1.0801475e-15
155	0x3748e9a8	1.1975331e-05
156	0x38195969	3.6561312e-05
157	0x2ab3cf55	3.1940653e-13
158	0x2934abc1	4.0117e-14
159	0x380fb5ec	3.4263285e-05
160	0x28cf1e0a	2.2994644e-14
161	0x3425dc28	1.5446915e-07
162	0x387773f7	5.899739e-05
163	0x33a5a21b	7.712898e-08
164	0x24589fed	4.6972996e-17
165	0x2730d992	2.4542852e-15
166	0x35f7888f	1.8442678e-06
167	0x35f7aa5f	1.8452519e-06
168	0x29e23950	1.0046358e-13
169	0x389624b9	7.1593975e-05
170	0x38568f70	5.1155163e-05
171	0x37f0a572	2.8687271e-05
172	0x3755a28b	1.2733634e-05
173	0x285a1bb0	1.2107435e-14
174	0x2a9a3a18	2.7396206e-13
175	0x27f71877	6.8582797e-15
176	0x2979dd7e	5.548122e-14
177	0x378d7afa	1.6865775e-05
178	0x2a757c37	2.1803467e-13
179	0x3717c92c	9.04714e-06
180	0x35dea084	1.6587005e-06
181	0x35dea094	1.6587023e-06
182	0x2baba2e5	1.2195493e-12
183	0x2a606d31	1.993308e-13
184	0x3925b7c6	0.00015804087
185	0x3917ec97	0.00014488619
186	0x37d409bb	2.52769e-05
187	0x22c717b1	5.3964142e-18
188	0x3803861b	3.135773e-05
189	0x293e2d0f	4.2227557e-14
190	0x35e3d765	1.6975506e-06
191	0x390b7d19	0.00013302676
192	0x37a2d4a4	1.9410923e-05
193	0x392b3a21	0.00016329486
194	0x33259503	3.855258e-08
195	0x361b3aa5	2.3130935e-06
196	0x24a2e614	7.064607e-17
197	0x37f4ed2d	2.919751e-05
198	0x2a8dae77	2.516769e-13
199	0x381775a3	3.6110763e-05
200	0x38c47255	9.367304e-05
201	0x38ee9f1a	0.00011378359
202	0x38c4727b	9.367332e-05
203	0x38105f01	3.4420755e-05
204	0x388d014a	6.723644e-05
205	0x3872bf0b	5.787522e-05
206	0x386fd342	5.717879e-05
207	0x3872e359	5.790903e-05
208	0x386b8741	5.615433e-05
209	0x2a1aebca	1.3759753e-13
210	0x38328036	4.2557913e-05
211	0x38769a2c	5.8794554e-05
212	0x38775de6	5.897684e-05
213	0x38408a4e	4.5905173e-05
214	0x38408aac	4.5905515e-05
215	0x3867aa3f	5.5233246e-05
216	0x386b9409	5.6166235e-05
217	0x387ebc5a	6.0733735e-05
218	0x3848839e	4.7806294e-05
219	0x38796dbf	5.9468435e-05
220	0x3871067f	5.7464928e-05
221	0x38676e7b	5.5177585e-05
222	0x38668179	5.4956854e-05
223	0x386727cf	5.5111766e-05
224	0x38947560	7.079053e-05
225	0x384d98ab	4.9017992e-05
226	0x38bbcbc9	8.954813e-05
227	0x380eaa36	3.401396e-05
228	0x3895c54c	7.141623e-05
229	0x37e3d5fe	2.7160157e-05
230	0x3827c13e	3.9995874e-05
231	0x37d46c0d	2.5322684e-05
232	0x33294f07	3.9420254e-08
233	0x383b2e21	4.4627235e-05
234	0x383ed4ce	4.549772e-05
235	0x389d05b2	7.487404e-05
236	0x385f17a5	5.3189364e-05
237	0x3833e264	4.288777e-05
238	0x381b3981	3.7008434e-05
239	0x380193a9	3.0893516e-05
240	0x38db8cd3	0.00010468964
241	0x3822adbd	3.8785616e-05
242	0x382bf24b	4.099523e-05
243	0x37d98206	2.5928963e-05
244	0x38c98ec8	9.611022e-05
245	0x384a2a50	4.819996e-05
246	0x383b6606	4.467929e-05
247	0x388ddea0	6.764871e-05
248	0x38fb7cd2	0.00011991862
249	0x38a9afa8	8.0912665e-05
250	0x37a3e117	1.953593e-05
251	0x387d0996	6.0328828e-05
252	0x38b741ae	8.738354e-05
253	0x38893c7d	6.543936e-05
254	0x380fb491	3.4262022e-05
255	0x382e4d67	4.155692e-05
